.dart_tool/chrome-device/Default/optimization_guide_prediction_model_downloads/356479eb-0e07-4f3a-8345-bdf3404dc833/model.tflite (tflite, 67216 bytes, 5 tensors)

dnn/hiddenlayer_1/bias/part_0 f4 [64]
000000 0e 13 b1 39 f8 71 e3 3c 6d e0 51 3d f0 4a 5d 3d
       0.00033774268 0.027764305 0.05123942 0.054026544
000010 b1 0b bb bd 30 3c 07 bc ab d3 c9 3d c1 e0 01 bd
       -0.09133089 -0.008254096 0.098548256 -0.031708483
000020 4a 7b 8d 3b f7 79 6d 3c 74 f2 5e 3d be f4 87 bc
       0.0043176757 0.014494411 0.05443044 -0.016596194
000030 ab 58 37 3d e1 41 15 3d e3 33 ab 3d af 0c 52 3b
       0.044762295 0.03643978 0.08359506 0.0032051017
000040 f6 e0 8b bb 83 6b 80 3c 1a c8 0b bd 4d 8c e0 3c
       -0.004268761 0.015676266 -0.03412638 0.02741065
000050 b8 2a 5c 3c f5 8e 4c 3d ac 30 d0 3d eb e7 ab 3d
       0.013437919 0.049941022 0.101655334 0.08393844
000060 27 52 60 bd 2f ee 86 3d a9 88 1d 3c 71 23 0c 3d
       -0.054765847 0.06588399 0.009615102 0.034213487
000070 d7 e0 13 3d 3e d4 80 3d dc a0 97 bc 69 af dc bb
       0.036103096 0.06290482 -0.01850932 -0.0067347777
000080 9e 4e 60 3d 11 d5 b7 bc d5 1e 1b bd 88 fd 0a 3c
       0.054762475 -0.022440465 -0.0378712 0.008483298
000090 eb f6 31 3d d8 54 84 3d dc 98 d0 bc a4 78 9b 3d
       0.04344837 0.06461495 -0.025463514 0.0759137
0000a0 4d 86 4e bd dd 15 28 bd d4 2b 71 bd 11 5f 65 bd
       -0.050421048 -0.041036475 -0.05887969 -0.055998866
0000b0 df 92 e3 ba 41 57 68 3c 1c f7 b0 3d b8 cd 0e bc
       -0.0017362497 0.014180959 0.086408824 -0.008716039
0000c0 68 fd da 3d 42 34 b4 3d 44 19 49 3d 2c 73 43 bc
       0.10692865 0.0879903 0.04909636 -0.011929315
0000d0 bc f7 2d 3d b2 f8 5e 3c 72 d4 04 bd bf 75 da bc
       0.042472586 0.013609098 -0.032429166 -0.026667474
0000e0 4f dd 98 bc a1 8d 62 bd 0b 49 7b 3d b6 b4 7a 3c
       -0.018660216 -0.05531085 0.061348956 0.015301874
0000f0 e3 59 96 3c ab a6 d5 bc 10 90 6f bc 47 a2 55 bd
       0.018353408 -0.02608045 -0.0146217495 -0.052156713

dnn/hiddenlayer_0/bias/part_0 f4 [128]
000000 38 5a ed 3d 42 60 9e bc ad c3 a2 3c da e2 e3 bd
       0.115894735 -0.019333009 0.019868696 -0.11127253
000010 1b ed 2d 3d cf 7e df bc fe f8 96 3d 0c ca b9 bd
       0.04246245 -0.027282147 0.0737171 -0.090717405
000020 ed 10 2c bd 8c 8b 3c 3d de 56 82 3c 97 cb 2e 3d
       -0.04200833 0.04603152 0.015910562 0.042674627
000030 be 8a 5f 3d e0 b9 2e 3d 4a b4 b3 3d a9 98 e7 3c
       0.054575674 0.042657733 0.08774622 0.028271036
000040 c6 47 6f 3d 82 80 64 bd 47 4d 90 bd 2f 5d 1f bd
       0.058418058 -0.055786617 -0.070459895 -0.038907226
000050 c2 f7 08 bc bf 7d e1 bc 1a e3 d2 3d b6 a2 6c bd
       -0.008359851 -0.02752578 0.102972224 -0.05777236
000060 35 90 03 3d 60 3f 9b 3c dc bd 91 3c e5 b2 52 bc
       0.03211995 0.018951118 0.017790727 -0.012860035
000070 c1 77 40 3b 20 27 bb bd 77 44 33 bc ce 80 83 bd
       0.0029368254 -0.09138322 -0.010941616 -0.06421052
000080 75 b0 b1 bb 99 40 13 3d 55 44 aa bd 14 25 a6 bb
       -0.0054226466 0.035950277 -0.083138146 -0.005070338
000090 35 b0 18 3d 89 10 c5 3c 32 f1 c0 bc dd ce 6b bd
       0.03727742 0.024055736 -0.02355251 -0.057570327
0000a0 bd 91 7e 3d b3 d6 4d 3d 58 4d 5b 3c 3e 3c 61 3d
       0.062150706 0.05025358 0.013385139 0.054989092
0000b0 51 e5 15 3c e3 01 05 bd 43 48 20 bd 3b 14 e8 bd
       0.009148912 -0.032472502 -0.039131414 -0.11331984
0000c0 c9 7e d2 bb 96 2c 00 bd 5b 0c bf 3c 21 86 31 bc
       -0.0064238054 -0.03129252 0.023321321 -0.0108352015
0000d0 b3 4f 84 3b 1a 9d 81 bb a2 ef c4 bc c0 8b 1e bd
       0.004037821 -0.0039554955 -0.024040047 -0.038707495
0000e0 c6 de 8a 3c a3 3c 8a 3c 77 8c db bb d7 f0 6a bc
       0.01695193 0.016874617 -0.0067000943 -0.014339647
0000f0 b6 bc c8 bd 4f 4b f9 ba 50 77 47 3d fa 1d 96 bd
       -0.09801619 -0.0019019636 0.04869777 -0.07329936
000100 dc ba f0 bc d1 1b b6 bd b4 76 9c bb 0f 02 ee 3b
       -0.029385976 -0.08892024 -0.0047748927 0.007263429
000110 b7 66 f1 bc 16 77 19 3d 71 5a 36 3d ae 11 b2 bc
       -0.029467924 0.037467085 0.044519845 -0.021736946
000120 5a aa 01 3d 13 85 7a bd 72 59 5b 3d 88 4b e5 3c
       0.0316566 -0.061162066 0.0535521 0.027990118
000130 d4 d9 32 3d 2b 72 20 3d 4a a8 27 3d 1e 0b a9 3d
       0.04366477 0.03917138 0.040931977 0.082540736
000140 90 25 15 3d e0 9c a8 3a d1 3d 37 bb 5a 04 0d ba
       0.036412776 0.0012864135 -0.002796043 -0.00053793716
000150 39 e1 8d ba b6 52 a3 bc 6b 9e 22 3d 13 94 b4 3b
       -0.0010824568 -0.0199369 0.03970186 0.005510816
000160 20 f0 cf 3c d5 3f 8c bd ad 19 b1 3d 36 1d 90 bb
       0.025383055 -0.068481125 0.086474754 -0.0043980135
000170 3a c0 30 bb b9 af f2 37 62 9d 35 3d 88 ad b2 3d
       -0.0026970045 2.8930475e-05 0.044339545 0.08724505
000180 26 50 52 3b 98 77 de 3c cf 3b a7 bc b9 2c 21 bd
       0.003209123 0.027156636 -0.020414261 -0.03934929
000190 71 e1 ac bd 8b d4 5c 3d 17 43 1a be 65 fc 39 3d
       -0.08441437 0.053913634 -0.15064655 0.045406718
0001a0 64 df a5 3a 1d 07 0a bc 72 71 9a bc 73 d4 01 bd
       0.0012655077 -0.0084245475 -0.018852923 -0.031696748
0001b0 b5 4f 4d 3b 5b 21 4b bd af 4a ef 3c 99 45 f2 3c
       0.0031328027 -0.049592357 0.029210417 0.029574202
0001c0 0e e7 01 3c af 9d 60 bc 2e 51 f9 bb 09 0a e7 bb
       0.007928623 -0.01370947 -0.0076085543 -0.007050757
0001d0 01 63 b7 bc 15 d1 2b 3d 9d eb ce bc 65 8e 09 3d
       -0.022386076 0.041947443 -0.025258834 0.033583064
0001e0 c4 a9 4b bd e7 16 38 bd ef 3a 74 b9 fe 7b 19 3d
       -0.049722448 -0.044943716 -0.00023291608 0.037471764
0001f0 b2 e4 76 3d 4f ad 36 bd e9 30 d6 bc 9c 7b ff ba
       0.060276695 -0.044598874 -0.026146369 -0.0019491795

dnn/hiddenlayer_0/MatMul f4 [128, 12]
000000 59 fb be 3d de 65 41 be 3f dc 66 3c a5 1d ae 3c
       0.093252845 -0.18886515 0.014090597 0.02125437
000010 2a 67 37 3e 0a f8 58 bd ba 7a 1a be 5d f2 51 be
       0.17910448 -0.052970923 -0.15085879 -0.2050261
000020 f9 c2 2e bb ca e5 1b 3d 9c bb 21 3e a4 17 8f 3d
       -0.0026666506 0.03806094 0.15794224 0.06986931
000030 52 ba dc bd 13 8b 48 3e 50 04 11 be c1 3d c2 3a
       -0.10777725 0.19584303 -0.14161801 0.001481943
000040 a4 57 56 3e 9a a5 79 3c 79 08 3e 3b a6 08 05 bd
       0.2093187 0.015237236 0.002899675 -0.03247895
000050 52 14 24 be 63 16 b2 3d 88 05 ce bd a7 77 5f 3e
       -0.16023377 0.08695676 -0.10059649 0.21822987
000060 7a 2e 05 be b3 04 94 3c a6 4d 6b bd 2a f4 15 be
       -0.1300601 0.018068647 -0.0574471 -0.14643922
000070 8d 45 2b be 57 09 54 3d 8d d1 97 bc 83 fe 58 bb
       -0.1672575 0.05176672 -0.018532539 -0.0033110685
000080 e4 18 47 3e 2f a9 44 be 6d a8 37 3e d3 5c 41 3e
       0.19443089 -0.19205163 0.17935343 0.18883066
000090 5c 69 4b be 58 00 73 3d c2 57 6f bd 13 8b aa 3d
       -0.1986441 0.0593265 -0.0584333 0.083273076
0000a0 5f e5 60 3d ab ba 43 3e da ac e8 bd 9f 33 33 be
       0.054906245 0.19114177 -0.11361094 -0.1750016
0000b0 f6 89 72 3c 55 9e 1c bd e9 48 38 bd db 01 80 bd
       0.0148034 -0.038236935 -0.044991408 -0.06250354
0000c0 12 4d a6 3d 6a d9 01 bc ce c6 15 3d 56 6a 54 be
       0.08120169 -0.007925371 0.036566548 -0.20743689
0000d0 43 ce 87 bd b1 7e 17 3e 56 e3 03 be 12 c2 d6 3d
       -0.06631138 0.14794423 -0.1287969 0.10486235
0000e0 c2 a4 d8 bc 5c 04 24 3d 79 9a 60 3e a6 e3 dd 3d
       -0.02644575 0.04004322 0.21933927 0.10834436
0000f0 89 b6 db bc 85 87 9b bc 43 c1 27 3d ae 57 ba 3c
       -0.026820438 -0.01898552 0.040955793 0.022746887
000100 9e 83 78 3e 23 21 55 3e 8f 22 dc 3c 31 bc 96 3d
       0.24268958 0.20813422 0.026871948 0.073601134
000110 10 4e 09 be e8 33 e8 3c d4 73 31 bd da ac 4d 3d
       -0.13408685 0.028345063 -0.043323353 0.050213672
000120 d7 e3 e0 bd c1 e0 d8 3d 01 d2 3b bd f2 26 33 be
       -0.10980957 0.105897434 -0.045854572 -0.17495325
000130 22 cb c0 bc 0e d7 3a be bf 60 06 be 04 34 e2 bd
       -0.023534361 -0.182461 -0.13122843 -0.110450774
000140 7d c9 11 be 40 18 19 be cf 49 1d 3e cd e7 88 bc
       -0.14237018 -0.14950657 0.15360187 -0.016712094
000150 87 73 28 be 5a ae 36 be 42 df 2d 3e eb a8 1d 3e
       -0.1645032 -0.17839947 0.16979697 0.15396468
000160 28 6c 96 3d db ba 3d 3d 89 03 86 bd ff ef 01 3e
       0.07344848 0.046320777 -0.06543643 0.12689207
000170 db e1 1e bd 29 b9 c5 3c a3 8b bc 3d c4 9d b5 3d
       -0.03878961 0.024136143 0.09206321 0.08867982
000180 3a 9c 9d bc ef b9 22 3e 06 5b 6b 3d 5e 36 a9 bd
       -0.019239534 0.1589124 0.057459854 -0.08262323
000190 22 35 14 b9 e4 51 3b 3e 5a be 95 bd 03 5c cf 3d
       -0.00014134173 0.18292958 -0.07311697 0.10124972
0001a0 5f 43 14 be e7 0e f4 3d 1c 3c 01 3e 86 68 39 3e
       -0.14478825 0.11916905 0.12620586 0.18106279
0001b0 e2 c9 88 3c 57 83 e5 3d 00 e4 1d be 31 36 43 3d
       0.016697828 0.11206692 -0.15419006 0.047659103
0001c0 17 47 23 3e 31 b5 c5 3d 9b 65 3b be 1a 4c 56 3e
       0.15945087 0.096537 -0.18300478 0.20927468
0001d0 1a e7 46 3c 3b 85 c2 3c 93 60 80 3d 5e 1d 9b be
       0.01214006 0.02374517 0.0626842 -0.30295843
0001e0 2f 35 26 bd d4 85 df bd 29 76 be 3d 28 5d ce 3d
       -0.040578064 -0.109141976 0.09299881 0.10076362
0001f0 24 b8 b1 bd b5 b0 3c 3e 8c 8b a1 3d b9 7f 2b 3e
       -0.086777 0.18426783 0.078879446 0.16747941
000200 43 19 3f bd a8 39 e1 bd 55 c8 48 ba d7 da 21 3e
       -0.04665495 -0.10997325 -0.00076592463 0.15806137
000210 41 7f 0b be f1 19 03 bd 0b 1f a1 bc 46 8d ca 3d
       -0.13622762 -0.03200716 -0.019668123 0.09890227
000220 98 4c 6f 3b b3 4e 1c 3e ee 61 3e bd 3e 72 16 3e
       0.003651416 0.15264396 -0.04648011 0.14692017
000230 dc 3d 39 3e b5 4c 0c 3e 80 c1 bb bd ae 75 ed 3d
       0.18090004 0.13701136 -0.091677666 0.11594711
000240 3b 80 47 3c ca 6a fe bd bf cb c2 3d 42 23 2d 3e
       0.012176569 -0.12422712 0.09511518 0.16907981
000250 e8 b0 c8 3c 82 4c b6 bd 90 d6 1c be 44 1a 08 3d
       0.024498418 -0.089013115 -0.15316224 0.033228174
000260 9f 75 b5 3d b2 01 78 be 78 0d b3 3d 67 4c 3c 3d
       0.08860325 -0.24219397 0.08742803 0.0459713
000270 62 88 23 b9 c7 51 ce 3d 21 e3 6d 3e 45 e8 e7 3d
       -0.00015595698 0.100741915 0.23231174 0.11323599
000280 f5 6e 65 bd 80 4a 3a bd 0b dd ab 3d 79 6e 14 be
       -0.05601402 -0.045481205 0.0839177 -0.14495267
000290 6b 92 1d bd fe b3 4f bd 55 62 dd 3d 07 fe 08 be
       -0.038469713 -0.050708763 0.10809771 -0.13378154
0002a0 00 73 20 bd 70 51 97 3c 37 79 97 bb 79 05 51 be
       -0.039172173 0.01847145 -0.004622604 -0.20412244
0002b0 6e 6d 8f 3d f2 f1 05 3e 85 9d c6 bd 79 33 cf bd
       0.07003294 0.13080576 -0.09698013 -0.101172395
0002c0 26 13 48 3e 5d 4d df 3d 76 97 fe 3d b8 04 22 be
       0.19538555 0.10903428 0.12431233 -0.15822113
0002d0 3b d4 f7 bd 0e 70 3c bd 97 0a 33 3e 77 b7 30 be
       -0.121010266 -0.0460053 0.17484508 -0.17257486
0002e0 31 85 e0 3d 9f ed 3e be 11 bb 17 3e 03 fc 66 be
       0.10962904 -0.18645333 0.14817454 -0.22557072
0002f0 e7 1c 2e 3e 2b ee 74 3e 9d 26 41 3d 13 c0 ad bc
       0.17003213 0.23918979 0.047155965 -0.021209752
000300 bf 39 23 be 5c ba 63 3e 42 f2 66 3c 06 5e 1d 3c
       -0.15939997 0.22239059 0.014095845 0.009604936
000310 dc d9 6c bd 99 7c 4c bd e4 9c 2f bd 59 71 7d 3d
       -0.057824954 -0.049923513 -0.042874232 0.061875675
000320 17 58 d7 bd 36 bf 0c 3e 41 38 83 bd 37 11 3e be
       -0.10514849 0.13744816 -0.06407214 -0.18561254
000330 80 bf 27 be cf 60 11 3e e1 a6 00 3e 70 b0 80 bd
       -0.16381645 0.14197086 0.12563659 -0.06283653
000340 a8 4c 11 3d d2 64 5b bd 76 7b 85 bb d2 cc 1b 3e
       0.035473496 -0.053562947 -0.0040735556 0.15214851
000350 6e 2d 25 be 46 ee c8 bc 8f 90 5e bd 52 89 03 3e
       -0.16130611 -0.02452768 -0.05433708 0.12845352
000360 8a d1 86 3d 9b ed 7d 3d f2 08 79 be fb 1b 12 3e
       0.06582935 0.061994176 -0.24319819 0.14268486
000370 46 7a 7c bd 5b bd 81 bd 5d 82 90 bd 34 8b 8f bd
       -0.061640047 -0.06334945 -0.07056115 -0.07008973
000380 14 e4 cd 3c 19 4f 51 3d 59 e4 6d 3e a9 0b 23 be
       0.02513317 0.051100824 0.23231639 -0.15922417
000390 f0 5e ec bd 84 fb f6 3d 40 75 6a bd 96 ef 81 bd
       -0.115415454 0.120596915 -0.057240725 -0.063445255
0003a0 ad f0 62 3c 71 ae 0b 3e f0 9f c4 bd ce 1f 77 bc
       0.013851327 0.13640763 -0.09600818 -0.015083266
0003b0 3f bd d7 bd 3f a1 a4 bc 02 d1 9a 3d e1 ed a5 3d
       -0.10534143 -0.02009642 0.07559396 0.081020124
0003c0 15 82 e5 bd b7 ab e4 bd a1 49 b1 3d e4 13 9e 3d
       -0.11206452 -0.111655645 0.08656622 0.077186376
0003d0 65 b9 8c 3d aa be 4f 3e 3a c9 65 be 4b 1d dc bd
       0.06871299 0.20287576 -0.22440043 -0.10747775
0003e0 8c d6 0e bd 51 8b b2 3c 40 e5 f1 3a 88 2d 25 3c
       -0.034872577 0.021794947 0.0018455163 0.010081656
0003f0 88 3b 2c be 72 eb f6 bd d4 4a 86 bd c7 97 bb bc
       -0.16819584 -0.120566264 -0.06557241 -0.022899522

dnn/hiddenlayer_1/MatMul f4 [64, 128]
000000 86 18 68 3b 22 a3 20 bd d4 f2 9e bd 66 e0 f1 3d
       0.0035415008 -0.039218076 -0.077611595 0.11810379
000010 60 15 40 3d 8f a9 0c be 9d 92 17 be 10 75 af bd
       0.046895385 -0.13736556 -0.14802022 -0.0856725
000020 7a 4b 3b 3e 27 8c c2 bd 8d 62 e1 bd 53 b8 b7 3d
       0.18290511 -0.09499388 -0.11005125 0.08970704
000030 0c c4 c3 bd db e4 a8 3c 26 2b d5 bd e5 cf 58 bd
       -0.09558877 0.02061694 -0.104086205 -0.05293264
000040 34 42 a8 bd 3f 2e e5 3d a5 e8 70 3c a4 0a 1e bd
       -0.08215752 0.11190461 0.014703904 -0.038584366
000050 e8 bd 22 3e 1f e8 69 3c 09 5e c7 bd 4b 4e 0c 3e
       0.15892756 0.014276533 -0.09734733 0.13701741
000060 7d 87 d4 3b d5 84 c3 3d fc f4 3f 3d f3 b0 e4 bc
       0.006485878 0.0954682 0.046864495 -0.027916407
000070 84 71 05 be f6 c5 56 bb b4 d6 e5 bd 4b 78 8f 3d
       -0.13031584 -0.0032771803 -0.11222592 0.07005366
000080 17 51 01 3e 97 8f 3e 3e 14 9b a1 bd eb b3 81 3c
       0.1262859 0.18609463 -0.07890907 0.015832862
000090 07 c7 90 3d 3e 23 eb bd bb 2c 7e 3d 4d 82 5e bd
       0.070692115 -0.11481331 0.062054377 -0.054323483
0000a0 14 55 72 bc ed 28 f0 3b 20 78 15 be 01 7e 78 3b
       -0.014790792 0.0073290975 -0.14596605 0.00379169
0000b0 9c 22 c5 3d a0 26 c8 3d 6c d2 6b bd ba 15 ae 3c
       0.09625742 0.09772992 -0.05757372 0.021250594
0000c0 3f 95 89 bd a2 73 ca 3d 16 61 db 3d 2b 6c 58 3d
       -0.067179196 0.098853365 0.10711877 0.052837532
0000d0 a6 0f dd bd bc 27 d9 bd aa f0 63 3d dc 23 b1 bd
       -0.10794 -0.10603282 0.055649437 -0.08649418
0000e0 f4 bf bf 3d 7f 67 f8 3d 56 29 58 bb f0 42 b3 bd
       0.09362784 0.12129115 -0.0032983623 -0.08753002
0000f0 98 9a 92 bc e7 46 00 be 67 42 d5 ba f0 33 36 bc
       -0.017895982 -0.12527047 -0.00162704 -0.011120781
000100 eb ad c9 3d 59 b7 ab 3d 4f 70 b3 bd 04 80 29 bd
       0.09847625 0.0838458 -0.087616555 -0.04138185
000110 ed dc 9f bd 86 e1 0a bd ac fb 84 bc fe 0e 83 3d
       -0.0780581 -0.033906482 -0.016233288 0.06399344
000120 44 ad f7 3d 3a 02 1a be c0 c8 de bd 07 5d 76 bd
       0.12093595 -0.15039912 -0.10878134 -0.06014731
000130 de 00 f1 bd b8 e9 da bd 41 9e 6f 3d 87 37 ec bd
       -0.117677435 -0.106891096 0.058500532 -0.115340285
000140 dd 89 f1 3c ea 25 a9 3d 82 cf 23 be 0f 69 93 bd
       0.029484684 0.08259185 -0.15997127 -0.07197773
000150 02 f5 1f 3d 4d 92 5b bd 4f 7f 34 3e 8b 55 52 3d
       0.039052017 -0.05360632 0.1762669 0.05135111
000160 7b f3 eb bd 17 00 4a bc 53 27 30 be 9a 1c 1c be
       -0.115210496 -0.012329123 -0.17202501 -0.15245286
000170 59 47 61 bd 38 d2 0c 3e 7e de 27 3e 97 3b ba 3d
       -0.054999683 0.13752067 0.16393468 0.09093397
000180 f8 70 f7 3b 2d 2c 2e bc af 3d c5 3d 7f 2e f3 bd
       0.0075513087 -0.0106306495 0.09630906 -0.11874103
000190 95 ed 0d 3e a2 fb 42 3d 79 1e 2d 3e 5b ac 09 3e
       0.13860162 0.047603257 0.16906156 0.13444655
0001a0 7b f0 94 bd f8 da f3 bd 66 6f 2f 3e cf 99 c0 3d
       -0.072724305 -0.11906999 0.17132339 0.09404337
0001b0 22 2a 1b be f4 73 21 be 1a 6a 57 3d 38 c4 22 3e
       -0.15152791 -0.15766889 0.05259142 0.15895164
0001c0 f6 06 cf bd f2 36 20 bd 0e 1b 9e 3d 79 85 70 3c
       -0.101087496 -0.0391149 0.07720004 0.01468026
0001d0 87 77 01 be 83 6d fd 3d c0 bf eb bd 63 a0 eb bc
       -0.12643252 0.12374403 -0.11511183 -0.028763002
0001e0 fe 60 13 3e cb 2a af 3d c7 9c 58 bd 55 08 76 bd
       0.14392468 0.08553084 -0.05288389 -0.06006654
0001f0 65 98 34 be 1d 1c 37 be 65 18 7c 3d e1 19 e5 3c
       -0.17636259 -0.17881818 0.061546702 0.027966442
000200 c5 ef 14 be 45 49 78 3d 2e aa 1f be ff 73 23 be
       -0.1454459 0.06061675 -0.15592262 -0.15962218
000210 c5 67 04 be 01 6c 3a be 1b 24 b4 bc 8d 62 ce 3d
       -0.1293021 -0.18205263 -0.021989873 0.10077391
000220 3c 9e 51 3c 6e 68 4a 3d 2a 48 ef bc f9 52 50 bc
       0.012794074 0.049416 -0.029209215 -0.012715095
000230 b6 4a 3f be bb 97 1e bc 10 78 ff bd 1a 7c ea 3d
       -0.18680844 -0.00967973 -0.12474072 0.11449452
000240 67 45 01 be fe 0e fe 3c 88 11 e8 3d 52 cf 00 3e
       -0.12624131 0.031013008 0.11331469 0.12579086
000250 c9 c4 2a 3e a5 86 78 3d b0 b9 fa 3d 62 35 1c 3c
       0.1667663 0.060675282 0.12242448 0.009534212
000260 b8 cc 33 be 14 b1 b6 3d 2f 8f 17 be c7 fd 1d bc
       -0.17558563 0.08920494 -0.14800714 -0.009643025
000270 0f 5f f6 bd ee 6b b1 3d c8 ac 4f bd 2f e7 2c 3e
       -0.1202985 0.08663164 -0.050701886 0.16885065
000280 35 c0 28 be 23 87 b7 3d e4 fd 14 be a6 2f 0a bd
       -0.16479571 0.08961322 -0.14549977 -0.033736847
000290 5c 04 a6 3d 9b f7 3e 3e 10 fd 3d bd 2b f9 1e 3e
       0.081063 0.18649141 -0.046383917 0.15524738
0002a0 5e 86 e9 3c 56 c3 31 3d 34 43 04 be 93 da 7f bd
       0.028506454 0.043399177 -0.12916261 -0.062464308
0002b0 19 2d c7 3d 65 86 0d bd d4 a4 1f bd 8f 82 72 3d
       0.097253986 -0.034551997 -0.03897555 0.05920654
0002c0 6e da 37 3e 61 b9 46 3d f3 9d 7b bd b6 17 4f 3d
       0.17954418 0.048516635 -0.06142993 0.050559722
0002d0 33 ad 9c bd a4 7c 7f bc 9e 39 aa 3d 07 c5 9e bd
       -0.07650223 -0.0155936815 0.08311771 -0.07752424
0002e0 75 46 00 3e 53 d7 28 3d e5 44 11 be b4 91 08 be
       0.12526877 0.041220974 -0.14186437 -0.13336831
0002f0 d7 e0 5e 3d 22 83 00 be 59 4d 1e 3d 97 5a 3d bd
       0.054413643 -0.12550023 0.038647983 -0.04622897
000300 6d f6 f6 bd 8e 23 85 3d 79 89 ad 3d c9 a9 14 3e
       -0.12058721 0.06500922 0.084734865 0.14517893
000310 b2 8f bb 3b 6e 98 47 bd cb 65 c3 3d e6 43 4d bb
       0.005723917 -0.048729353 0.095409 -0.0031320988
000320 d2 be 89 bd f2 f4 1b 3e 41 90 d2 3b 46 76 2a 3e
       -0.06725849 0.15230158 0.006425888 0.1664668
000330 28 90 8e bc 8f e0 ed bd 6e 4c 1c 3d 4b 12 31 bd
       -0.017402723 -0.11615097 0.038158827 -0.043230336
000340 43 68 d5 bd 2f 6d 7f 3d f4 1a b8 3c e4 a7 bf bd
       -0.10420277 0.062359985 0.02247379 -0.093581945
000350 fd ff 11 3e 32 16 69 bd f9 a5 41 bc e2 1b 6e 3c
       0.14257808 -0.056905933 -0.011819356 0.014533015
000360 2d 55 ec 3d 99 7a 03 3e bb bc 8a 3d 4d 0a 9f 3d
       0.115396835 0.12839736 0.06774279 0.077656366
000370 1d 46 12 be fa ea 08 be 8e f4 b5 bd 23 b4 d6 bb
       -0.14284559 -0.13370886 -0.08884536 -0.0065522357
000380 8f 01 6c bb 4f 5f b7 bd 55 bd 24 3e 54 ed 2d 3d
       -0.0036011671 -0.089537255 0.1608785 0.04246266
000390 e7 33 06 bd 2d d0 c7 3d 29 c3 c2 3d f1 2b 90 3c
       -0.03276434 0.09756503 0.0950988 0.017599078
0003a0 17 43 26 3e f7 f6 9c 3c 26 e1 8c bd 42 e3 00 be
       0.1623653 0.01916073 -0.06878881 -0.12586692
0003b0 2a 53 cc bd b7 d3 ff bd 8b db 3b be d9 91 5d bd
       -0.099768 -0.12491553 -0.18345468 -0.05409417
0003c0 b6 42 0b be dd 0f 4a bb 55 c6 9b 3d 25 39 bc bd
       -0.13599667 -0.003083221 0.07606188 -0.09190587
0003d0 17 bf fe 3d 81 9b 4e 3d 07 1c 36 3e 72 bf 8e 3d
       0.12438791 0.05044127 0.17784129 0.06970109
0003e0 5d 14 7b bd 67 a1 1c be cf 8d 16 3e 73 d4 93 3d
       -0.061298717 -0.15295945 0.14702533 0.07218256
0003f0 15 28 0e 3d 18 f0 c5 3d de f8 92 3d 53 6b 81 bd
       0.034706194 0.09664935 0.07176374 -0.063192986

dnn/logits/MatMul f4 [1, 64]
000000 4d c3 92 3d 81 15 cf 3d 29 7d 73 3e ff b1 46 3e
       0.07166157 0.101115234 0.23778214 0.19403838
000010 28 5b 2c be 43 f4 96 3e 90 e9 b6 3e 99 2b 06 3d
       -0.16831648 0.29483232 0.3572507 0.03275642
000020 52 68 81 be 35 62 05 3e 32 23 b4 3e d8 a8 58 3e
       -0.25274903 0.13025744 0.35183102 0.21158159
000030 3a 1f df 3d 81 cc 6a 3d dd 24 96 3e 62 96 e8 bd
       0.10894628 0.057323936 0.29325 -0.11356808
000040 26 d8 b7 3d f5 ef 05 3d 18 27 f7 bd 1f f4 27 3e
       0.08976774 0.032699544 -0.120680034 0.16401719
000050 a6 11 ed 3d 62 de b5 3e 0f fe c9 3e ff cf 9c 3e
       0.11575632 0.35521227 0.39451644 0.30627438
000060 06 33 5b be 49 3a 86 3e ef d9 fc 3d 19 7d de 3d
       -0.21406183 0.26216343 0.12346255 0.10863704
000070 d9 22 b6 3e f2 6b 83 3e fb bc 11 be 79 fd 04 3e
       0.35573462 0.25668293 -0.14232247 0.12987317
000080 34 6a c8 3e cc 25 b4 be fe 9f a5 be 37 25 93 3e
       0.39143527 -0.35185087 -0.32348627 0.2873933
000090 b9 43 bb 3e 4d 8f a5 3e 72 b9 8c be ab 19 57 3e
       0.36575106 0.32335892 -0.27485234 0.21005885
0000a0 75 c7 b7 be a4 61 43 be 89 c4 58 be 92 69 47 be
       -0.3589436 -0.19080216 -0.21168722 -0.19473866
0000b0 f8 c9 7a ba 05 9b 94 3d 01 66 cb 3e 30 ec 0e bd
       -0.0009566839 0.0725613 0.3972626 -0.034893215
0000c0 15 f3 b1 3e 19 01 97 3e a3 ce ba 3d 72 5e d2 bd
       0.3475577 0.29493025 0.09121444 -0.1027192
0000d0 e5 94 82 3e 6a 41 9d 3d c7 35 a2 be 0f 7a a5 be
       0.25504223 0.07678492 -0.31681654 -0.32319686
0000e0 2c 89 23 be 4e c3 bb bd 2e 07 70 3e c5 ab 8f 3d
       -0.15970296 -0.09168111 0.23440239 0.07015184
0000f0 c0 92 0b 3e ad 67 9c be c7 24 14 3c 52 d4 ab be
       0.136302 -0.30547848 0.0090419715 -0.33560425
