.dart_tool/chrome-device/Default/optimization_guide_prediction_model_downloads/c1543cd7-2a9e-4922-ada2-b5435254e00b/model.tflite (tflite, 410364 bytes, 166 tensors)

context_transformer_0/bottleneck_input/norm/add f4 [32]
000000 b3 90 80 be ce 93 6b be c4 ba d5 bd 02 02 2e 3e
       -0.25110397 -0.23005602 -0.10436013 0.16992953
000010 67 89 d1 bd b4 fa b6 3d 7e dc a3 3d d3 3a d6 3a
       -0.102312855 0.089345366 0.0800104 0.0016344435
000020 ec 88 91 3d c3 fe 3d 3d f2 11 94 3d e9 89 34 bb
       0.07106194 0.046385538 0.07229985 -0.0027548021
000030 56 bb 20 3d 0f c1 99 3c f4 b4 aa 3d ab e9 2a be
       0.039241157 0.018768815 0.08335295 -0.166907
000040 4c 3f ed bd 81 ac 71 bc ed 67 40 be b0 75 b8 3c
       -0.115843385 -0.014750601 -0.18789645 0.022517055
000050 61 74 8a bc 3e fa 81 3c aa cd 3a bd 04 ac c1 bd
       -0.016901197 0.015866395 -0.045606293 -0.094566375
000060 c0 4b b2 bd bf 31 31 3e e6 eb ff 3d 80 20 1b 3e
       -0.087058544 0.17304133 0.12496166 0.15149117
000070 62 71 e3 bd 39 96 4f 3d c2 90 f1 bb d8 a7 18 be
       -0.111056104 0.050680373 -0.007371993 -0.14907777

context_transformer_1/bottleneck_input/norm/add f4 [32]
000000 4b 11 aa bd 08 8e ce 3d 2b 50 1e 3d 72 be a0 3e
       -0.083040796 0.10085684 0.038650673 0.31395298
000010 47 f2 1a be de c4 4e 3c 45 a2 60 3d 8a 18 40 3c
       -0.15131484 0.012620179 0.054842252 0.011724601
000020 fc e4 f6 bc 7b 2b 30 3d 86 d4 a9 3c 3e 40 46 3c
       -0.030138485 0.043010216 0.020731222 0.0121002775
000030 b0 bc 8a bd 33 42 dc 3d 22 78 29 3d 8e 9e 12 3d
       -0.067742705 0.10754814 0.041374333 0.03579574
000040 9f e6 44 3e 62 3d bd bd 55 2d 0f be a6 7b 1e bd
       0.192286 -0.092402235 -0.13982137 -0.03869214
000050 9d 6c c3 bd 26 f7 57 bc d4 4b da 3c f7 c9 81 3d
       -0.09542201 -0.013181483 0.026647486 0.0633735
000060 37 c7 1a 3d da eb 10 bd d8 5e de bc b4 c5 35 be
       0.037787642 -0.035381176 -0.027144834 -0.17751199
000070 80 19 e5 bc 83 14 ab bd f6 40 9c 3c 44 57 6a 3e
       -0.02796626 -0.08353522 0.019073945 0.22884852

mention_transformer_0/bottleneck_input/norm/add f4 [32]
000000 4e 6e fd bd 2e e8 aa bd 10 cd 47 be fc 16 c0 3d
       -0.123745546 -0.08345066 -0.19511819 0.09379384
000010 64 c5 42 3d 56 92 55 3d e4 19 7e bd fd 84 b2 3e
       0.047551528 0.05214151 -0.06203641 0.34867087
000020 90 df 92 bd 12 2c 3d 3e 7b d4 9f bd 8b cb a1 3d
       -0.071715474 0.18473843 -0.07804199 0.07900151
000030 7c cc 94 3d 86 cc 82 3c a2 3d 3c 3b 98 bd 90 bb
       0.07265565 0.015966665 0.002872326 -0.0044171326
000040 08 3e e2 3c 0e b3 43 bd 30 30 36 3e b4 7d 22 bd
       0.02761747 -0.04777818 0.1779182 -0.03967066
000050 ae ab eb 3d 90 6f 87 3e ce b5 41 be 80 2c 4e bb
       0.11507355 0.26452303 -0.18917009 -0.003145963
000060 5a 43 80 3c fa ea 01 be 0c 77 73 3e de cf 6e be
       0.015657116 -0.12687293 0.23775882 -0.23321483
000070 c6 11 ca bd 4e 65 17 3e b2 65 3c 3d 92 62 9f be
       -0.09866671 0.14784738 0.04599542 -0.3112989

mention_transformer_1/bottleneck_input/norm/add f4 [32]
000000 d8 6d 0c 3e da e8 95 3e e7 61 1b 3e dc d7 00 3e
       0.13713777 0.29279214 0.15174066 0.12582344
000010 35 6b 06 3d 11 69 ec 3e a5 e7 fc bb 67 d4 16 3e
       0.032817084 0.4617391 -0.007718044 0.14729463
000020 04 85 67 be 29 26 50 3e 3f 8d a6 3e f8 3d af bd
       -0.22609335 0.20327057 0.32529637 -0.085567415
000030 47 0e ac be 77 ce b4 3c 27 ca e5 3e 9f c8 9e be
       -0.33604643 0.022071106 0.44880792 -0.31012437
000040 06 19 9c 3e 32 12 84 bd e6 bb 02 bf ef 79 be 3d
       0.3048784 -0.06448783 -0.5106796 0.09300601
000050 98 a4 ae bd 69 bf ab 3e 19 d9 ca 3e 45 32 95 3e
       -0.085274875 0.33544472 0.39618757 0.29139915
000060 40 8a 77 be c2 93 e7 3e 99 85 8f 3e 5e 02 97 3e
       -0.24173832 0.45229918 0.28031614 0.29493994
000070 bf 50 a9 bd fa 5d f5 be 65 9d 90 be ab 6b 14 be
       -0.08267354 -0.4792326 -0.28245082 -0.14494197

context_transformer_0/attention/value/add;context_transformer_0/attention/value/einsum/Einsum;context_transformer_0/attention/value/add/ReadVariableOp/resource f4 [32]
000000 3c 99 9e bd 6d 31 83 3d e9 25 b1 bd e8 fd b3 3b
       -0.07744071 0.064059116 -0.08649809 0.0054929145
000010 5a 8c 88 bc f6 dd 0d 3d 40 b6 6c 3d d4 ca 3a bd
       -0.016668487 0.034635507 0.057790995 -0.04560359
000020 dd ba 0d 3d 26 f6 35 bd c3 25 3b 3d e2 64 ea bc
       0.034602035 -0.0444242 0.04569031 -0.028612558
000030 af b1 a0 3d 2d 93 8b 3d ad 15 b7 bd 15 c5 c9 bb
       0.078463905 0.06815181 -0.08939681 -0.006157527
000040 78 2a 98 bd d2 5a 7c 3c b4 31 cd bd d7 79 1d bd
       -0.07429975 0.015402513 -0.10019246 -0.038446274
000050 c1 5c 82 3c b3 07 49 bd 4a ae 8d bc f8 89 15 3d
       0.01591337 -0.04907961 -0.017295022 0.03650853
000060 a7 63 2c 3d bd 5b 37 3d 38 e8 be bd 12 5c a4 3d
       0.042087223 0.044765223 -0.09321636 0.080253735
000070 99 6e bc bb ac bd 45 3b 57 a1 3b 3d 5f f9 b5 bb
       -0.005750489 0.0030172868 0.045808163 -0.005553409

context_transformer_0/bottleneck_input/norm/mul f4 [32, 32]
000000 80 d8 89 bd 32 96 1d 3d 13 f8 b3 3e db 9b f6 bc
       -0.06730747 0.038473316 0.35150203 -0.030103615
000010 48 63 26 3c 45 1f 3f 3e 2e af cf bb ab 67 c0 3c
       0.010155506 0.18664272 -0.0063380217 0.023486933
000020 1e 80 2d 3e 94 a0 d3 3d 58 8b 60 be c0 c8 bb 3c
       0.16943404 0.10333362 -0.21928155 0.022922873
000030 c1 af f1 bc 53 5f 21 be 43 0a 8c be 58 02 cc 3d
       -0.029502751 -0.1575902 -0.2735158 0.099613845
000040 50 15 69 3e 87 80 20 be 31 8a 52 be f7 dd 5a be
       0.22762036 -0.1567403 -0.20560528 -0.21373735
000050 c5 38 37 be ba e9 f3 3d cb 3a 6b bd f8 31 42 bd
       -0.1789275 0.11909814 -0.057429116 -0.047410935
000060 e3 ad 08 be 5b 88 08 be 9d bb 35 be f1 26 05 be
       -0.13347583 -0.13333265 -0.1774735 -0.13003136
000070 c2 13 71 3d 2b 93 38 3e 0f bb 8c be 26 2e fc bd
       0.058856733 0.1802489 -0.27486464 -0.123134896
000080 84 77 37 be 6f 0a 5f be 08 b1 b5 3d 50 9f ff be
       -0.17916685 -0.21781324 0.08871657 -0.49926233
000090 b7 8e fd bd fb 5c 9a bd 0c 26 5f be 1c 1b a6 3d
       -0.12380736 -0.07537266 -0.21791857 0.081106395
0000a0 f8 62 83 3e d3 c8 d8 bc 8e ba 92 bd 1a ef 07 be
       0.25661445 -0.026462948 -0.07164489 -0.13274804
0000b0 0e 8a c2 be 40 8d f9 3c dc ff 11 3e 16 36 82 3e
       -0.37995952 0.030462861 0.14257759 0.2543189
0000c0 04 90 5d 3d c4 d4 a1 be d8 86 1b be 94 6e 3c bb
       0.054092422 -0.3160764 -0.15188158 -0.0028752433
0000d0 2a a2 87 be 78 48 a7 3d 87 95 89 bd 92 90 78 bd
       -0.2649091 0.08168119 -0.06717973 -0.060684748
0000e0 fd 2c 2e 3e ca a0 8f 3e 07 74 88 be c8 cf f7 bd
       0.17009349 0.2805236 -0.26651022 -0.12100178
0000f0 7c d5 43 3d 4d 25 1c be a9 23 87 3e a8 5a f0 be
       0.047811016 -0.15248604 0.26394394 -0.46944165
000100 1c 18 a9 be cb 39 87 be 55 97 ad 3d d9 c0 a8 bd
       -0.33026206 -0.2641128 0.0847613 -0.08239908
000110 97 1c 02 3e a9 bf 1f 3e 04 02 15 bd d5 a8 2d 3e
       0.12706219 0.15600456 -0.036378875 0.16958936
000120 de c1 b7 bc 71 2c 51 bd ab de a9 3c 47 68 17 3d
       -0.02243131 -0.051067773 0.02073606 0.03696468
000130 3e 4b b5 3d d8 1d a4 3d 47 df 21 3e 62 71 d7 3d
       0.08852242 0.08013505 0.1580783 0.10519673
000140 53 fd 32 3c 2f 0d 8e be 7e 2e 4c 3e a4 be 11 bf
       0.010924655 -0.27744433 0.1993961 -0.5693152
000150 19 04 2b 3e 48 d0 06 3b 51 5e af be cf 50 31 3e
       0.16700782 0.0020570923 -0.34251645 0.17315982
000160 f4 02 5b 3d 1d 83 ea 3e a1 51 16 bf 29 f3 fc bb
       0.053469613 0.45803156 -0.58718306 -0.0077194166
000170 78 4c 4d bd 30 63 64 3e 42 15 7d 3c 7e 9e d6 be
       -0.050121754 0.22303462 0.015446963 -0.41917795
000180 86 45 45 be dd b5 6c 3e fc 01 9b 3c c0 4a 0d 3f
       -0.19264802 0.2311625 0.018921845 0.55192184
000190 d9 9c 22 3e 90 7d 0a be 9b 88 5d 3c cc 62 7b 3e
       0.15880145 -0.13524461 0.013521339 0.24549407
0001a0 03 7b b0 3e a0 b8 e8 bc ea c0 7b 3e 62 e9 d2 3e
       0.3446885 -0.028408349 0.2458531 0.41193682
0001b0 e5 ec 9e bd 8d 07 3c bd 66 95 90 be b9 80 d6 bd
       -0.07760028 -0.04590564 -0.28238982 -0.10473771
0001c0 0d e9 0f 3e e9 46 a6 3e ce d4 2c 3e 0a 27 b2 3d
       0.14053746 0.32475975 0.16878054 0.08698852
0001d0 dd 47 00 bd 21 bf 86 3e 89 73 a7 be 14 e1 9a be
       -0.031318534 0.26317695 -0.32705334 -0.30249846
0001e0 2d cb 1e 3e 49 95 8b 3e 58 0e e3 be e7 0e 10 3e
       0.15507193 0.27262333 -0.4434688 0.14068185
0001f0 d7 d3 ac 3e e4 cd a2 3e 16 c3 ef 3e e8 ff cc bc
       0.3375537 0.31797707 0.46828526 -0.02502437
000200 9e ae b9 3e 5e fb 71 3e f1 c7 cf bd 60 70 df 3c
       0.36266035 0.23631045 -0.10145558 0.027275264
000210 17 60 4b 3e 66 e5 24 3d 94 ec 02 3f ef 47 71 bb
       0.19860874 0.040257834 0.5114224 -0.0036816557
000220 ce 27 82 bb 55 8e 84 3d 8d 33 58 3e b0 8c de 3d
       -0.0039720302 0.0647246 0.21113415 0.10866678
000230 07 16 83 bd a8 25 bb be da bf 1f 3e ee c2 5e be
       -0.06400686 -0.36552167 0.1560053 -0.21754047
000240 b0 8c f7 3d 79 8e 08 be 5c 1d e2 3d 9a 1c d8 3d
       0.12087381 -0.13335599 0.11040756 0.1055233
000250 fc c5 0c bf fd b4 2f 3e d0 f5 10 3d a5 e6 02 3e
       -0.549896 0.17158885 0.035390675 0.12783296
000260 1e a4 48 be d5 f8 9a be ba 4c b5 3e 71 82 df bd
       -0.19593856 -0.3026797 0.354101 -0.109135516
000270 4e af d0 be 64 b1 35 3d 81 37 6c 3e 61 e8 b3 3d
       -0.40758747 0.044358626 0.23068048 0.08784557
000280 2f 02 17 3f 41 88 6b 3d 38 86 c5 3c 03 39 21 be
       0.58987707 0.05750299 0.024111852 -0.15744404
000290 0b e2 82 bf a8 0d 15 3d a9 20 71 bd 68 17 86 be
       -1.0225233 0.036389977 -0.058869038 -0.26189733
0002a0 57 19 ef 3e 12 cd a4 3e 6d 6d 8d be 1e f0 47 bf
       0.4669902 0.32187706 -0.27622548 -0.78100765
0002b0 77 e1 41 be af e4 91 3e 3e 44 dc be 43 a5 f6 3e
       -0.18933664 0.28494784 -0.43020815 0.4817296
0002c0 f9 37 54 3d 94 65 76 3e a3 30 e1 bc e2 88 17 3e
       0.051811192 0.24062186 -0.027489012 0.1479831
0002d0 56 91 5d 3d 81 1c 2a 3f 6c 4c f3 3e ed ca 11 3f
       0.05409368 0.66449744 0.47519243 0.56950265
0002e0 d7 7a f6 3e 65 f9 a3 bd fb 85 a8 3e 10 33 c5 be
       0.48140594 -0.080065526 0.3291472 -0.3851552
0002f0 9b b8 ab bb 31 01 9f 3c db 51 db be 5e b0 75 bd
       -0.0052405125 0.019409748 -0.42835888 -0.05998265
000300 b5 1f d8 be bc 86 5e be ad 50 b8 3e dc 36 c9 bd
       -0.4221169 -0.21731085 0.3599905 -0.09824917
000310 fd ba a8 be c5 b0 9f be ce 15 12 3e 8e b5 3b bd
       -0.3295516 -0.31189552 0.1426613 -0.04582744
000320 b5 d5 85 3d 1a 67 32 3e 88 35 ab be f8 d9 0a be
       0.06534902 0.17422143 -0.3343928 -0.13559711
000330 f2 67 67 be d4 7e 5a 3e 80 89 80 be e1 a1 82 3e
       -0.22598246 0.21337444 -0.25104904 0.2551413
000340 bf ef bb bd 70 85 8a 3d 1d 34 55 3c 3e 0b 8b be
       -0.09176587 0.067637324 0.013012913 -0.27157015
000350 0a d9 d3 bd 11 9a b8 bd 6b 13 b9 3b db ed ee 3e
       -0.10344131 -0.09013761 0.0056480668 0.46665844
000360 6d 22 40 3e 77 be 88 3c 83 63 12 3e 24 69 cb be
       0.18763132 0.016692383 0.14295773 -0.39728653
000370 b6 c8 8a 3d 02 ed 2a 3d fe fc b8 bd 08 db 8b bd
       0.06776564 0.041729935 -0.090326294 -0.06828886
000380 db 5c 8a bd 62 d0 b5 3d e4 da 5d be 4c 7b ae 3c
       -0.06755992 0.088776365 -0.21665531 0.021299027
000390 04 0a 9c be d8 7e 6c bd f8 eb 92 3c a6 9b ea 3d
       -0.3047639 -0.057738155 0.017934784 0.11455469
0003a0 54 42 a6 be b6 d0 f9 3d d5 39 d3 bd 7b 6f c9 3e
       -0.3247248 0.121980116 -0.10313765 0.39342865
0003b0 bb 23 41 3e 21 8d 16 be 14 3b c9 3d c1 fb 70 bd
       0.18861286 -0.14702274 0.098257214 -0.05883384
0003c0 71 f6 62 be d5 b6 2d 3e 25 65 7e be 89 38 c6 bd
       -0.22164322 0.16964276 -0.24843271 -0.09678752
0003d0 7d b3 e0 3c 7f 18 c1 3d 39 1c c3 3e 96 04 1d be
       0.027429337 0.094285004 0.3810747 -0.1533378
0003e0 5c c2 f0 3d 5e 24 6d 3e 9a 37 38 be 50 f4 00 be
       0.11755821 0.23158404 -0.1798996 -0.12593198
0003f0 a3 83 9b 3e 6b 4e f3 bd 3c 83 23 3c 72 e8 84 be
       0.30373868 -0.118801914 0.009980019 -0.25958592

context_transformer_0/kq_shared_bottleneck/norm/mul;context_transformer_0/kq_shared_bottleneck/norm/add;context_transformer_0/attention/key/einsum/Einsum;context_transformer_0/attention/key/add;context_transformer_0/attention/value/einsum/Einsum;context_transformer_0/attention/key/add/ReadVariableOp/resource f4 [32]
000000 37 63 7b be 77 1e 68 be 9d 2a 0b 3e 80 58 27 3e
       -0.24549566 -0.22667871 0.13590474 0.16342354
000010 42 00 31 be af eb a4 3d 13 27 81 be 14 d8 10 3e
       -0.17285255 0.080527656 -0.25225124 0.14144927
000020 e0 44 dd bd c5 6d 4d 3d d5 a9 56 bd f4 16 2a 3d
       -0.108041525 0.050153513 -0.05240806 0.041525796
000030 29 ba 9a bb d5 84 d2 bc b1 e4 5c bd 69 a0 ea 3d
       -0.004721899 -0.025698105 -0.053929035 0.11456377
000040 0c ec b3 3c ba 2f 06 3e d9 67 61 bb 1f 49 ff 3d
       0.021963142 0.13104144 -0.0034394173 0.124651186
000050 30 64 0a 3e ca 90 2d 3e 70 68 12 be 97 64 e0 3d
       0.13514781 0.16949764 -0.14297652 0.10956686
000060 88 20 f3 3b c1 5e 71 3d 2e fb 90 bb ca e0 ae 3b
       0.0074196495 0.058928255 -0.004424474 0.0053368555
000070 3e d1 d6 3d bc 08 46 bb 47 a7 37 3d e9 51 04 3e
       0.104891285 -0.0030217608 0.044837262 0.12921871

context_transformer_0/kq_shared_bottleneck/norm/mul;context_transformer_0/kq_shared_bottleneck/norm/add;context_transformer_0/attention/key/einsum/Einsum;context_transformer_0/attention/key/add;context_transformer_0/attention/value/einsum/Einsum;context_transformer_0/attention/key/add/ReadVariableOp/resource1 f4 [32, 32]
000000 0e 48 b9 be 7b c7 4f 3e 8e b3 9f 3e c2 6e 94 be
       -0.36187786 0.2029094 0.31191677 -0.28990752
000010 4a 99 8a be 2c 2c 81 be da f1 6e 3e 0d 78 7a 3e
       -0.27070075 -0.25229013 0.23334447 0.24459858
000020 8c 49 3d be 67 3a e4 bd 11 9e 1e 3e e7 52 3d 3c
       -0.18485087 -0.11143952 0.15489985 0.01155541
000030 11 a4 9f bd a7 9a 15 3e 04 83 b8 3d 60 b0 07 3e
       -0.07794965 0.14609776 0.09009364 0.13250875
000040 ae 0c 4d 3e 84 7c 9a 3d 61 40 91 3b a5 3f a7 be
       0.20024368 0.07543281 0.0044327234 -0.32665744
000050 ae ec 1f 3e 16 8c 37 3e 0a 0a a4 be 9e 48 e1 3d
       0.1561763 0.17924532 -0.3203891 0.11000179
000060 3e ac 22 bd 62 ef a7 be 2c 13 56 3e 88 91 02 3e
       -0.039715044 -0.32799822 0.20905751 0.12750828
000070 50 4f 20 3e a8 ad a2 bd e5 30 78 be 75 4e b8 bd
       0.15655255 -0.079432786 -0.24237402 -0.089993395
000080 ea ff af be f6 4b 8e 3e 79 8e c6 3e 94 5b 8e be
       -0.34374934 0.2779233 0.38780573 -0.27804244
000090 73 26 98 be cf 6f 65 be 4b a6 7e 3e 8b 0c 0d 3e
       -0.29716834 -0.22405933 0.24868123 0.13774316
0000a0 fe fa 3e be 3b de 3a be 00 9e 1e 3d c8 dd 08 be
       -0.18650433 -0.18248837 0.0387249 -0.13365853
0000b0 64 a0 dc bc f0 e5 9a 3e f9 61 e5 3d af a2 68 3e
       -0.026931949 0.30253553 0.112003274 0.22718309
0000c0 f0 cf 88 3e 0d a8 12 3e 61 f5 27 3d 3c 6b 9f be
       0.26721144 0.14321919 0.041005496 -0.311365
0000d0 bc e5 bd bb ba 77 f1 3d 51 6b 95 be 01 9c 60 3e
       -0.0057952087 0.11790414 -0.29183438 0.21934511
0000e0 a4 fc a1 bd 62 3a 5c be 52 c1 66 3e 6b a3 77 3e
       -0.079095155 -0.21506646 0.22534683 0.24183433
0000f0 6e 4c 65 3e 82 8d ae 3d 2a 89 8f be e1 48 1a 3e
       0.22392437 0.08523084 -0.28034335 0.15066864
000100 f5 fc 3b be ca 04 88 bd 1f 95 7d be d2 16 73 3d
       -0.18358214 -0.066415384 -0.24763916 0.059347935
000110 a1 c1 e6 3d a7 3f 3e 3e f6 48 73 bc 64 8a 77 be
       0.112674005 0.18578969 -0.014848938 -0.24173886
000120 6e 29 5f 3e 4c 6e af 3d 50 bb a6 3d 5c 7f 1f 3d
       0.21793148 0.08565959 0.08141196 0.03893982
000130 29 ad 2e 3e 94 25 e6 bd 50 fe 41 be e2 e3 00 be
       0.17058243 -0.11237636 -0.18944669 -0.1258693
000140 ca 02 2a be a5 3d 45 be 80 d6 44 be 79 18 12 3e
       -0.16602626 -0.19261797 -0.1922245 0.14267148
000150 d5 dd 57 bd 16 02 56 be 49 c3 c4 bd d1 b6 51 be
       -0.05270179 -0.20899233 -0.0960756 -0.20479895
000160 52 f6 cd bd b9 b2 ba 3e 17 47 05 be 9e 5c c6 bc
       -0.100567475 0.3646448 -0.130154 -0.024214085
000170 ae 92 2c be de f9 cd bd d3 28 1b 3e d2 cc 37 bd
       -0.16852829 -0.10057424 0.15152292 -0.044873066
000180 e8 22 64 bd d7 a1 ae bd f1 ea 7b be 72 76 11 3e
       -0.05569735 -0.08526962 -0.24601342 0.1420534
000190 49 dd 53 3e 30 0e 63 3e ee 24 b9 bd c5 45 80 be
       0.20689882 0.22173381 -0.09040247 -0.2505323
0001a0 3f a6 89 3e 14 bb c6 3d cd ef 27 bd 0d 3c fa 3b
       0.26884648 0.09703651 -0.041000176 0.007636553
0001b0 78 7c 18 3e 76 74 31 bd 1c 0e 15 be 11 e6 c9 bd
       0.14891231 -0.043323956 -0.14556164 -0.09858335
0001c0 7a d3 f7 bd 11 0d 0c be fe 20 e5 bd 2c 07 68 3e
       -0.12100883 -0.1367686 -0.111879334 0.22658986
0001d0 ea d8 4f be ca e5 7c be 70 fc e1 3c 1b d5 e3 bd
       -0.2029759 -0.24697033 0.027586192 -0.11124631
0001e0 34 59 d8 bd 0c 72 b9 3e 55 6b 23 be 6f 56 11 3b
       -0.10563889 0.36219823 -0.15958913 0.0022176763
0001f0 ab fe 12 be eb 17 63 3d 18 46 24 3e da cd 09 3d
       -0.1435496 0.05544273 0.16042364 0.03364358
000200 e0 07 83 bd d2 e6 d9 3c ca a4 45 3e 28 ff 4f be
       -0.063979864 0.026599322 0.19301143 -0.20312178
000210 46 91 4f be 16 24 8d be 46 f5 91 3d 8b 4e 85 3e
       -0.20270261 -0.27566594 0.0712686 0.26036486
000220 b6 52 80 be b9 0a db bc df 0c bf 3d 19 f7 07 3d
       -0.25063103 -0.026738511 0.09328627 0.033194635
000230 38 7f 4b be bb a1 21 bd f0 aa f2 3c a5 f4 7f 3b
       -0.19872749 -0.03946088 0.029622525 0.0039055732
000240 4a d7 f0 3d 5f 61 23 3e ab f3 ec 3d de 8e 6d be
       0.11759813 0.15955113 0.115699135 -0.23199031
000250 f0 df 68 3e 53 9b 83 3e 69 5a ae bc 51 11 57 3d
       0.22741675 0.2570444 -0.021283345 0.05250675
000260 a3 d4 16 3e e8 32 dd be eb a8 40 3e bf 57 85 bc
       0.14729552 -0.432029 0.18814437 -0.016277192
000270 27 fe ab 3d 93 22 03 be 0f 53 2f be 3b 2b 42 be
       0.08398085 -0.12806158 -0.17121528 -0.18961804
000280 c6 71 17 bf c8 ce 91 bd 90 11 31 be 75 32 22 bd
       -0.5915798 -0.071195185 -0.17291856 -0.0395989
000290 73 2b 03 3e 31 82 45 3e 90 19 ac 3c bb 2b 94 be
       0.12809543 0.19287945 0.021008283 -0.28939614
0002a0 45 5c 2d 3e 38 4b 7c 3e 2d 3c 04 3e 78 35 08 3e
       0.1692973 0.24638069 0.1291358 0.13301647
0002b0 26 ce b4 3d 36 e6 49 bd f8 31 75 be 0e 2b 4e be
       0.08828382 -0.049291812 -0.23944843 -0.20133612
0002c0 cd 1a 57 be 7a 44 3f be 7c d6 9d be ba da d6 3c
       -0.21006317 -0.18678465 -0.308277 0.026227344
0002d0 a2 7f 26 3c fe f5 34 be 32 9e 8c be e9 8f a8 be
       0.010162266 -0.17671964 -0.27464443 -0.32922295
0002e0 1d 52 fa bd 1d f2 89 3e 81 ac d5 ba f7 cb 46 3e
       -0.12222693 0.2694253 -0.001630202 0.19413744
0002f0 59 5c 66 be d9 56 2b be b2 c7 e0 3d 5f 93 49 be
       -0.22496165 -0.16732349 0.10975589 -0.19685124
000300 31 07 14 3e a9 2e 37 be 96 d7 d5 3c 6e fd 2a 3c
       0.14455868 -0.17888893 0.026103776 0.010436399
000310 80 65 5c 3d b8 11 81 be de 98 a9 bd 14 b1 50 3f
       0.053807735 -0.2520883 -0.0828111 0.815202
000320 47 ab 0f be 28 20 08 3e 13 e9 11 3e fa 82 5b 3e
       -0.14030181 0.13293517 0.14249067 0.21436682
000330 02 ac e1 bd 79 06 7d be eb d9 96 3e 79 e5 a1 bd
       -0.11019136 -0.247095 0.29463133 -0.079050966
000340 d3 c9 69 bd bb 00 b0 3d 0d a7 83 3c e8 05 6d be
       -0.05707724 0.08593889 0.016070867 -0.23146784
000350 17 ec c5 3e 98 dc 83 3e cf 18 c5 bc 60 19 39 be
       0.38656685 0.25754237 -0.024059681 -0.18076086
000360 62 20 60 3e cb 73 ea be 8b d0 40 3e e7 4d 09 be
       0.21887353 -0.45791468 0.18829553 -0.13408624
000370 62 9d fd bb f3 c1 22 bf 8c 1e 62 bd 49 18 25 bf
       -0.0077397088 -0.63577193 -0.055204913 -0.6449018
000380 5c 5d ce 3e 70 19 9f be 66 10 de be 0f c2 5c 3e
       0.40305603 -0.31074095 -0.43371886 0.21558402
000390 8f fb b6 3e 11 02 12 3e 76 0a 2f be 0f 96 7d be
       0.357388 0.14258601 -0.17093834 -0.24764274
0003a0 58 e1 25 3e 28 31 b7 3e 57 ff 87 bd bf eb 7a bd
       0.16199243 0.3577969 -0.06640499 -0.06125998
0003b0 9d a3 70 bd 8b 24 94 be 32 5d 7f bd 9b bb 8b be
       -0.058749784 -0.2893413 -0.062344737 -0.2729157
0003c0 a0 71 8f be a4 4e a9 bd 97 9b aa bd c2 d5 4c 3e
       -0.28016376 -0.08266953 -0.08330458 0.20003417
0003d0 6f 6a 86 3e b6 8b c2 bd b2 85 bf 3e c3 47 64 be
       0.26253077 -0.09499304 0.3740669 -0.22293
0003e0 1a c5 75 3e ab 43 03 3e 4f 14 26 be d9 96 a0 be
       0.2400097 0.12818782 -0.16218685 -0.31365088
0003f0 78 bd 38 be 91 7e 89 be 7c e3 86 3e 18 f3 ae be
       -0.18041027 -0.26854375 0.26345432 -0.3416984

context_transformer_0/kq_shared_bottleneck/norm/mul;context_transformer_0/kq_shared_bottleneck/norm/add;context_transformer_0/attention/query/einsum/Einsum;context_transformer_0/attention/query/add;context_transformer_0/attention/value/einsum/Einsum;context_transformer_0/attention/query/add/ReadVariableOp/resource;context_transformer_0/attention/Mul;context_transformer_0/attention/Mul/y f4 [32]
000000 85 6e 27 3e 92 55 28 3e fb 24 15 be d9 57 1f be
       0.16350754 0.16438892 -0.14564888 -0.15560855
000010 d1 9b 1b 3e 24 2c 18 be fa 1a 1d 3e 57 4d c1 bd
       0.15196158 -0.14860588 0.15342322 -0.094385795
000020 7a 43 53 3e 9c fe 62 bd f6 9a b4 bd ac 1a 08 3d
       0.20631209 -0.055418596 -0.08818619 0.03322856
000030 71 77 22 3d a7 6a 4a be be 82 c9 3c fd ed 9a 3d
       0.03966469 -0.19767247 0.024598476 0.07564924
000040 a1 a6 cc bc 2b 72 14 3d f2 68 da 3b 26 a6 b5 3d
       -0.024981799 0.03624169 0.0066653425 0.08869581
000050 04 9c a9 3d 9e 99 79 3d bc 7b 63 bd dd e6 fc 3d
       0.08281711 0.060937516 -0.055537924 0.12348721
000060 51 1f 45 3e f3 c9 b8 bd 87 f0 96 3b 6c ef 4c be
       0.19250228 -0.09022894 0.00460631 -0.20013207
000070 0d 64 32 bd 27 81 4b be c8 13 35 3e b7 d7 d4 3d
       -0.043552447 -0.19873486 0.17683327 0.10392707

context_transformer_0/kq_shared_bottleneck/norm/mul;context_transformer_0/kq_shared_bottleneck/norm/add;context_transformer_0/attention/query/einsum/Einsum;context_transformer_0/attention/query/add;context_transformer_0/attention/value/einsum/Einsum;context_transformer_0/attention/query/add/ReadVariableOp/resource;context_transformer_0/attention/Mul;context_transformer_0/attention/Mul/y1 f4 [32, 32]
000000 11 30 54 be cd 94 23 bd 3f a9 9d bc bd 35 de bb
       -0.20721461 -0.03993683 -0.019245742 -0.0067813084
000010 0e c7 2d bd 62 b1 9a 3c 1b 7a 2d bd 22 d7 f8 bd
       -0.04242616 0.01888341 -0.042352777 -0.12150408
000020 38 13 d6 bd ae de 9e bc af c2 94 bd 31 04 a4 3d
       -0.104528844 -0.019393291 -0.072636954 0.08008612
000030 82 71 7f bd 80 33 52 bc c1 34 37 bd c6 23 9b bd
       -0.06236411 -0.012829661 -0.044728044 -0.075751826
000040 b7 46 6b bd 8c 1d 82 3d de 9a 10 3d 36 0f 13 bd
       -0.057440486 0.06353292 0.035303943 -0.03590318
000050 4c 56 40 bc 0f 58 5c 3d 32 50 47 bd 67 0a f5 bd
       -0.011739325 0.053794917 -0.048660465 -0.11964875
000060 bb 04 bb bc 20 07 dd bd ef 49 80 3a 3d c1 23 3e
       -0.022829404 -0.107923746 0.0009787659 0.15991683
000070 f2 97 09 bc 19 ab fa 3c b8 b6 79 bd a7 ad 93 3d
       -0.008398043 0.030599164 -0.06096527 0.07210856
000080 01 4e 1d be 64 8b 0f b9 dc e3 55 bb 0f a2 87 bc
       -0.15361787 -0.0001368947 -0.0032637035 -0.016556768
000090 36 13 7c bc 9e c4 71 3c 1c 65 92 bb a6 31 57 be
       -0.01538544 0.01475635 -0.0044676196 -0.21015033
0000a0 45 c0 a6 bd 57 e0 b8 bb f7 7b eb bd cf 78 56 3d
       -0.08142141 -0.005641978 -0.11498254 0.052361306
0000b0 a0 83 4b bd f5 5e 36 3d 4b 27 ef 3c 80 d5 08 bd
       -0.049686074 0.04452415 0.029193541 -0.033406734
0000c0 60 ec 38 bd 06 ed 99 3d f1 1c 3c 3c 9d 42 0c bd
       -0.0451473 0.07515912 0.01148151 -0.034243215
0000d0 43 eb 6d bd 6e 6f 9f 3c 99 7e 63 bd 7c 7f ad bd
       -0.05808569 0.019462314 -0.055540655 -0.08471581
0000e0 4b 4c 1b bb a9 0f ae bd 1b ef 7d 3c 00 24 23 3e
       -0.0023696597 -0.08499081 0.015498902 0.15931702
0000f0 40 15 1c 3c 14 e0 e4 3d a4 0d 94 bc e9 c4 dd 3d
       0.009526551 0.11175552 -0.01807291 0.10828573
000100 a2 88 6b bd 4a a6 2f 3d c3 d0 95 3c e5 96 a4 bd
       -0.05750335 0.042883195 0.018288022 -0.08036593
000110 d5 df e0 3b fe 86 9c bc 16 a2 00 3d cf b1 9f 3d
       0.0068626204 -0.019107338 0.031404577 0.07797586
000120 c5 53 c6 3d f8 4a 6c 3d 53 6f a4 3d b6 a2 5a bd
       0.096839465 0.057688683 0.08029046 -0.05337783
000130 8c ae cc 3d c8 af 51 3b fb 49 25 bd a9 2f f7 3c
       0.0999423 0.0031995643 -0.040353756 0.030174093
000140 14 9f 2c 3d a5 5b b7 bd a4 25 ad bd 26 61 99 3c
       0.042143896 -0.08953027 -0.08454445 0.018723082
000150 7e 5c 8e 3d 98 3a 73 bd ed 8b 4e bc 37 56 93 3d
       0.06951235 -0.05938205 -0.012606603 0.071941786
000160 8c 74 3f bc bf ad a6 3d 9e 5d 22 bc 64 d0 5c bc
       -0.011685502 0.08138608 -0.009910015 -0.013477419
000170 0b b6 98 bc ae a2 62 bd 52 25 8e 3d 80 0e eb bd
       -0.018641492 -0.055330925 0.06940712 -0.11477375
000180 25 7c 17 3d 58 2f 68 3d 35 01 dc 3c c3 d1 53 bd
       0.036983628 0.056685776 0.026856044 -0.051713716
000190 e1 26 84 3c 47 2a 97 bc 63 5f 63 3d 40 0c 62 3d
       0.01613182 -0.018452777 0.05551089 0.055187464
0001a0 e5 d6 db 3d ac b2 98 3d a4 0d 41 3d e9 51 8d bd
       0.10734347 0.07455954 0.04713215 -0.06900389
0001b0 ad 57 9b 3d ea 48 ed 3c 69 48 9e 3c 9f 64 57 3d
       0.07585082 0.028965432 0.019321637 0.052586194
0001c0 0b 86 6b 3d e8 f0 b2 bd 42 6a ab bd cb 51 f9 3c
       0.05750088 -0.087373555 -0.083698764 0.03043451
0001d0 37 91 f1 3c a3 c2 ae bd 66 f0 44 3c b8 f1 bf 3d
       0.02948819 -0.08533218 0.012020206 0.09372276
0001e0 8c 16 25 3c 13 7f d0 3d e6 f3 ac ba 18 a8 e9 bc
       0.010076176 0.101804875 -0.0013195246 -0.028522536
0001f0 75 3a b5 3c 6d 30 24 bd b9 ba 89 3d d9 08 cd bd
       0.022122601 -0.040085245 0.06725068 -0.10011453
000200 48 e9 93 bd 72 a9 60 bd d1 11 08 bd 4e a3 41 3d
       -0.07222229 -0.054849096 -0.033220116 0.04727488
000210 43 23 7b bd f4 be 21 3c cd 8e 5a bd 1e 8f d5 bc
       -0.061312925 0.009872187 -0.05335884 -0.02606922
000220 f2 df f0 bd 18 88 a3 bd 09 ba 85 bc 6b 4f b8 3d
       -0.11761464 -0.07984942 -0.01632406 0.08999523
000230 b2 02 d2 bd fb 7d 3e bd 54 68 86 bd 89 63 8b bd
       -0.1025442 -0.046506863 -0.06562868 -0.06806094
000240 ee e8 80 bd ee 54 9a 3d a0 a5 df 3d 73 d8 fc bc
       -0.06294428 0.0753573 0.10920262 -0.03086493
000250 c0 92 33 3c 52 b5 b9 3d 86 16 c6 bc e3 c8 e7 bd
       0.010960281 0.09067787 -0.024180662 -0.11317613
000260 15 6d c2 bb a7 db fa bd 6a b8 76 3a 5e 8a d6 3c
       -0.0059334137 -0.122489266 0.0009411635 0.026189025
000270 25 ca 04 bd 1a 84 8a bc f0 d5 c7 bd 17 83 83 3d
       -0.032419343 -0.016908694 -0.09757602 0.06421488
000280 d3 a3 36 be 7b 92 4c 3d 76 4a 06 3d 50 7a f4 bd
       -0.17835931 0.049944382 0.032785855 -0.11937392
000290 95 1d 0e bd 59 ac 09 bc 88 3d 5a 3d d8 8f cd 3d
       -0.03469618 -0.008402907 0.053281337 0.10037202
0002a0 7c 76 88 3d b2 77 b0 3d 7e be 06 3e 38 78 e4 bc
       0.06663224 0.0861658 0.13158605 -0.027889356
0002b0 8c ee a6 3d 6b 41 19 3d a7 64 94 bd 2d c4 bd 3c
       0.08150968 0.037415903 -0.072457604 0.023164833
0002c0 89 6d 27 3d 2a 04 c9 bd 3a d6 de bd f4 70 21 bd
       0.040875945 -0.09815247 -0.10880704 -0.03941436
0002d0 07 9b c9 3d 41 7a 67 bd 7f df d5 bd 26 b6 fb 3c
       0.09844022 -0.056513075 -0.10443019 0.030726504
0002e0 b9 8d 97 bc 2a 6b a3 3d 66 f1 89 3c a1 31 91 3d
       -0.018500196 0.07979424 0.01683874 0.07089544
0002f0 0e 54 bf bc d9 7b d4 bd c8 b9 0f 3d 91 e0 20 be
       -0.02335551 -0.103751846 0.035089284 -0.15710665
000300 ca ab c4 bd ea 25 0c be 74 d4 74 bd d4 c5 0b 3e
       -0.09603079 -0.13686338 -0.059772924 0.13649684
000310 ca 64 b7 bc d2 f7 34 3d eb 03 07 be bb 98 9b 3e
       -0.022386927 0.044181652 -0.13185088 0.30389962
000320 00 87 c8 bd 45 95 ab bd d9 d2 7e 3c 13 5e 42 3e
       -0.09791374 -0.0837808 0.0155532 0.18981199
000330 c1 29 b4 bd 6a 98 33 be da 62 c7 bd 9a 85 cc bd
       -0.087970264 -0.1753861 -0.09735651 -0.0998642
000340 53 58 ae bd 76 86 4e 3c 81 4a d5 3d 19 c8 f0 ba
       -0.0851294 0.0126053 0.10414601 -0.0018370181
000350 6b a4 2a 3d 31 95 03 3e 60 2f a2 3d 2f 62 16 be
       0.041660707 0.12849881 0.07919192 -0.14685892
000360 c2 fa 87 bd 30 9e fc bd 0c 12 a6 bd 2d c2 e9 3c
       -0.06639625 -0.12334859 -0.08108911 0.028534973
000370 c2 70 bd bd b1 68 06 be cc e7 f4 bd d0 34 d0 bb
       -0.092500225 -0.13125874 -0.11958274 -0.006353952
000380 38 9a 0d 3e d4 12 2c bc 14 b3 ea bc ac 4e 11 3d
       0.13828361 -0.010502536 -0.028649844 0.035475418
000390 86 0c 36 bb 6d 64 21 3c 14 ef 0d 3c 03 3c 80 3e
       -0.002777846 0.0098506035 0.008662958 0.25045785
0003a0 80 6a 84 3d d5 5f 49 bd c4 4e 70 3e f2 cd 8d bc
       0.06465626 -0.04916366 0.23467547 -0.017310116
0003b0 6d d0 0c 3d 7a 49 92 bd 29 b6 ca bd 66 26 ec 3c
       0.034378458 -0.07142921 -0.098980255 0.028826904
0003c0 4b cc b8 3c b5 eb ce bd a5 e3 c2 3c 57 09 5c 3d
       0.022558352 -0.10103551 0.02379019 0.053719845
0003d0 41 4f 99 3d 50 98 f5 bb a2 e9 f2 3c e4 49 73 3d
       0.074858196 -0.0074949637 0.02965242 0.05939664
0003e0 49 3f b8 bc 16 c2 1b 3e 94 1e 3e bd 5f cd 5f be
       -0.022491114 0.15210757 -0.04641588 -0.21855687
0003f0 56 86 80 bd a9 f4 db bd 12 5c 33 bc aa c7 e5 bd
       -0.062756225 -0.107400246 -0.010947244 -0.112197235

context_transformer_0/ffn_layer_0/intermediate_dense/einsum/Einsum;context_transformer_0/ffn_layer_0/intermediate_dense/Relu;context_transformer_0/ffn_layer_0/intermediate_dense/add f4 [32]
000000 ae 7e ae be cb 8b 05 be dd ed cd be f9 07 83 be
       -0.34081024 -0.13041608 -0.40220538 -0.2559202
000010 a9 44 e9 be 61 2a 48 be 49 f7 49 be e4 e0 94 be
       -0.45560196 -0.19547416 -0.19723238 -0.29077828
000020 b6 d2 c2 be 4d 25 14 be 94 07 c9 be 13 63 c3 be
       -0.38051385 -0.14467354 -0.39263594 -0.38161525
000030 a3 06 4f be 01 0f af be d3 19 fb bd ac dd 24 be
       -0.20217375 -0.34191135 -0.12260785 -0.16100186
000040 6a b9 86 be da 5a 86 be 4c 45 62 be 3f 4b 12 be
       -0.26313335 -0.2624119 -0.22096747 -0.14286517
000050 2e ae ea bd 5d 86 c6 bd 7a c4 4c be 9e a2 10 be
       -0.114590034 -0.096935965 -0.19996825 -0.14124534
000060 cc 9b e7 be 3d 41 81 be 29 df 8d be 28 cc 06 be
       -0.4523605 -0.25245085 -0.2770932 -0.13163817
000070 4c 25 6d be b4 71 10 be 86 cb c4 be 45 2c 86 be
       -0.23158759 -0.14105874 -0.38436526 -0.2620565

context_transformer_0/attention/norm/mul;context_transformer_0/attention/norm/add;context_transformer_0/ffn_layer_0/intermediate_dense/einsum/Einsum;context_transformer_0/ffn_layer_0/intermediate_dense/Relu;context_transformer_0/ffn_layer_0/intermediate_dense/add f4 [32, 32]
000000 cd df d0 3e be 2e 0c 3d c8 9a 60 3e 0a 57 75 bc
       0.40795746 0.034224264 0.21934044 -0.014974365
000010 cc 00 76 be 89 bb d8 be 9d ca 5e 3d 18 97 8b be
       -0.24023741 -0.42330578 0.054392446 -0.27263713
000020 ef ee c9 bd 0b c7 fb 3c 91 a1 28 bc 61 ef 37 3d
       -0.09860026 0.03073456 -0.010292427 0.044906024
000030 c2 a6 55 bd c8 06 01 be 91 6d ce bd cd 62 95 3d
       -0.052160986 -0.12600243 -0.10079492 0.072942354
000040 6f ff 8b 3e 03 59 17 3e f1 92 1a 3e 81 64 ad bd
       0.27343318 0.14780049 0.15095116 -0.08466435
000050 a0 e7 17 3e d7 d9 c8 3d d5 41 62 3d 58 12 e2 3d
       0.14834452 0.09807175 0.055238564 0.11038655
000060 11 14 5f bc 23 36 be be 47 21 16 be 17 1d 94 bd
       -0.013615624 -0.37150678 -0.14661132 -0.07232111
000070 93 d6 38 3e 54 31 cc bd fc 05 7a 3e 9d e1 5f be
       0.18050604 -0.09970346 0.24416345 -0.21863408
000080 2a 01 36 3e cf 1b 92 3d 79 9c ee bc 85 33 b0 be
       0.17773882 0.0713421 -0.029127346 -0.34414306
000090 2c 48 70 3e 72 39 de be 39 3e 0c be 05 1f 40 bb
       0.23465031 -0.43403202 -0.13695611 -0.0029315364
0000a0 3e 1f e5 bc 1e e7 2a 3e 78 51 99 be 75 24 7b 3e
       -0.027968999 0.16689727 -0.29944968 0.24525626
0000b0 4c 4c c6 3e b4 3f ef 3b ea 06 aa be 3e 5e 86 3d
       0.38730085 0.007301295 -0.332084 0.06560944
0000c0 de 7f a4 be b6 3f 53 3d 3c 76 6f 3c 3b 7a 19 be
       -0.32128805 0.05157443 0.014615592 -0.14988033
0000d0 71 30 02 3d 52 38 18 bd ef 5c 08 be e2 ec a7 be
       0.03178448 -0.037163086 -0.13316701 -0.32797915
0000e0 14 dd d2 be 82 54 63 be 81 34 7e 3c 47 5c 86 3d
       -0.41184294 -0.22200206 0.015515448 0.06560569
0000f0 89 f4 84 3e 44 2c 9f 3c e4 b2 fe bd 2d 7b 8c 3e
       0.25967816 0.019430287 -0.124364644 0.27437726
000100 68 f1 11 3e c4 a9 dc 3d 4a 4c b1 3e 75 86 d4 be
       0.14252245 0.10774568 0.34628516 -0.41508833
000110 3d 8b 21 be 0d e0 d2 3d bb 64 75 ba c9 a1 15 3d
       -0.15775771 0.102966405 -0.00093610183 0.036531243
000120 64 0f 8a be 13 83 80 be d4 93 cd be 38 02 fb be
       -0.26964867 -0.25100002 -0.40151846 -0.4902513
000130 1f 71 ce be 00 02 e7 3d cc b5 c0 3e 8d 6a 52 3f
       -0.4032068 0.11279678 0.376387 0.82193834
000140 4d 1d af 3e 3b 5b 5a 3d e9 39 6b 3c 92 cd 46 3d
       0.34202042 0.05330966 0.014357069 0.04853589
000150 cd 06 d7 bd a5 95 8f 3e 8a a2 0d be 14 30 5c 3e
       -0.10499344 0.28043857 -0.13831535 0.21502715
000160 fa 55 a6 3e 69 4c 51 3e a0 7e 2a be 05 04 8f be
       0.3248747 0.20439304 -0.16649866 -0.27932754
000170 5f 94 92 bd e0 36 d3 3c bf 96 b1 bc f9 43 06 3e
       -0.07157206 0.025783002 -0.021678327 0.13111867
000180 db 0c 33 3e dc 01 1a 3d 09 97 94 3e 2f 67 da bd
       0.17485373 0.03759943 0.2902148 -0.10664212
000190 8e ae 17 be a5 b1 37 be 4c 3d a5 3d 65 36 8b 3d
       -0.14812681 -0.1793886 0.08068332 0.06797484
0001a0 2e 36 30 be 0e 23 55 3d 2c 2b 4e 3d 10 9b d5 3e
       -0.17208168 0.052035384 0.05033414 0.41719866
0001b0 58 e4 53 3e e2 1c 9f be 57 db 0a bf b1 37 e4 bd
       0.20692575 -0.31076723 -0.54240936 -0.11143435
0001c0 6e 22 e5 3e 5e 02 6c bd 69 17 98 3d ce 3a 9f 3e
       0.4475283 -0.057619445 0.0742634 0.31099552
0001d0 0b 80 d5 3e b4 5c 8b be 86 3a d1 bb 56 71 ef bd
       0.41699252 -0.27219164 -0.0063851504 -0.11691539
0001e0 fb e0 1f 3f c3 5a 07 3d 4d 22 bc 3b 3a c4 7a bc
       0.6245267 0.03304554 0.0057413937 -0.015305573
0001f0 ed 08 ea 3d 70 0b 96 3e d5 13 9d 3e 1a 2e 72 be
       0.11427484 0.293056 0.30679193 -0.23650399
000200 cf 81 b1 3c c7 27 03 3e 20 02 32 bc 3e 2e d4 be
       0.021668343 0.12808143 -0.010864764 -0.4144153
000210 82 53 c7 3d c1 80 22 3d a0 2c bd bc f8 8e 9a 3d
       0.09732725 0.03967357 -0.023092568 0.075468004
000220 1b d1 1c 3c 44 d1 7d 3e 1f 5e aa be 35 be 55 be
       0.009571339 0.2478686 -0.33274934 -0.2087334
000230 c2 67 30 be bc c8 43 bd c8 44 bb bd 98 66 a0 3c
       -0.1722708 -0.047798857 -0.09143978 0.01958017
000240 a1 d9 cf bc 08 97 cd 3e fb e3 26 3f a0 9f 0e be
       -0.025372328 0.4015429 0.6519162 -0.1392808
000250 30 5f a9 bd f0 1f 58 bd 14 bd 55 3d f3 41 05 be
       -0.08270109 -0.052764833 0.052182272 -0.13013439
000260 d3 29 4f 3e 46 01 90 be d3 5a 98 bc 20 54 0b 3d
       0.20230798 -0.28125972 -0.018597996 0.034015775
000270 04 2f 0f 3c 33 ad 9b 3e ab 49 b6 3b 65 06 a0 3e
       0.008739237 0.30405578 0.005562981 0.3125488
000280 54 40 22 be dc e7 35 be 59 8e d2 3d b8 19 ea bc
       -0.15844852 -0.17764229 0.10281057 -0.028576717
000290 92 eb e2 3e 0d e3 a0 bd 43 13 c5 3d bc c8 43 3e
       0.4432035 -0.078558065 0.096228145 0.19119543
0002a0 74 55 13 be 11 7b 8a be 6f 5d f8 3d 95 f6 a8 bd
       -0.14388067 -0.27047017 0.12127196 -0.08250157
0002b0 04 16 8d bc e9 26 53 3e 2b fc a4 3d 2f 71 cc 3d
       -0.017222412 0.20620312 0.0805591 0.099825256
0002c0 df 91 8e 3e b3 e1 43 be 8d ab b3 3e 5c e7 b1 3c
       0.27845666 -0.19129066 0.3509182 0.021716766
0002d0 92 7a ea bb 78 bb 83 be 43 66 74 be d7 39 f3 3c
       -0.007155725 -0.25728965 -0.23867135 0.029690666
0002e0 a8 6a e1 bd 3d ab 51 3d d5 d3 8d 3c 87 bc 74 3e
       -0.11006671 0.051188696 0.017312923 0.23900042
0002f0 f2 dd 08 be 24 bd fd 3c d0 46 98 3e 6b bf 59 bd
       -0.13365915 0.030973978 0.29741526 -0.053161066
000300 68 7f 0c be 49 83 95 bd cd 0f 63 3e 15 20 24 bf
       -0.13720477 -0.07300431 0.22173996 -0.64111453
000310 b6 d7 39 3e 53 14 49 3e 81 d1 e5 3d 4d e4 01 3e
       0.18148693 0.1963666 0.112216 0.12684746
000320 e3 06 ab bc 0f d5 ef 3c cc 94 07 bd d4 09 93 bd
       -0.020877307 0.029276399 -0.033100888 -0.07179609
000330 4f 5a 69 be df f9 91 3e c5 50 9e 3d 2a 7a 05 be
       -0.22788356 0.2851095 0.07730249 -0.13034883
000340 f3 53 17 3e 65 c5 cf bd 51 4c 72 be ba 50 fe 3d
       0.14778118 -0.10145072 -0.23661925 0.12417741
000350 97 25 29 3e 45 2d 81 be 34 6f 53 be dd f4 45 3e
       0.16518246 -0.2522985 -0.2064789 0.19331689
000360 57 d2 ee 3d 1f 65 3e 3e ae 0a 04 be 10 8f 3a be
       0.11661213 0.18593262 -0.12894699 -0.18218637
000370 3a 2f 47 bd 0c b9 27 be 9a 9a 2f be b2 76 ba 3e
       -0.048629023 -0.16379184 -0.1714882 0.36418682
000380 fb 47 cc 3e b0 7a ba 3c d7 ee d3 3c 2f b8 d0 bc
       0.39898667 0.02276358 0.025870724 -0.02547845
000390 a1 6e 14 be 42 40 ce be f1 7a b0 bb db bb 83 be
       -0.14495327 -0.402834 -0.0053857495 -0.2572926
0003a0 e6 a9 6d be 49 d8 96 3d e3 a9 d8 be e8 f5 b2 3d
       -0.23209342 0.07365472 -0.42317113 0.08738309
0003b0 d0 78 e0 bd cb 3b 7c be cf 8b 66 be 6f 12 be bb
       -0.10960543 -0.24632184 -0.2251427 -0.0058005373
0003c0 97 81 5a 3e 41 6b b9 3e d1 9f a4 3e 50 2f 80 ba
       0.21338497 0.3621464 0.3215318 -0.0009779725
0003d0 d1 24 90 bd ee 7d 6e be c4 74 a3 bc 79 51 8e 3c
       -0.07038272 -0.23290226 -0.01995314 0.017372834
0003e0 aa e8 ad bd 8a 2d 91 be b3 6a 04 be 88 e5 ab 3d
       -0.08491643 -0.28355056 -0.12931328 0.08393389
0003f0 8d 5e 02 bd 13 cc 0c bd c8 43 24 3e ad 6a 35 3d
       -0.031828452 -0.034374308 0.16041481 0.044291187

context_transformer_0/ffn_layer_1/intermediate_dense/einsum/Einsum;context_transformer_0/ffn_layer_1/intermediate_dense/Relu;context_transformer_0/ffn_layer_1/intermediate_dense/add f4 [32]
000000 f2 22 bc bd 63 7d 56 be 81 20 63 bd be 7f 90 be
       -0.09186353 -0.20946269 -0.05545092 -0.2822246
000010 a9 f5 6e be 43 47 0d be 7a cc 64 bd 00 2e 9a be
       -0.233359 -0.13796715 -0.055859067 -0.3011322
000020 86 1f b4 be 01 2e 8e bd d2 c8 3f be 78 df 53 bd
       -0.351803 -0.06942368 -0.1872895 -0.05172679
000030 e7 29 96 bd 70 52 67 be 78 9c 39 be a9 85 44 be
       -0.07332211 -0.22590041 -0.18126094 -0.19191612
000040 4f 31 8c be 50 e6 41 be 71 c1 2c be c4 de f3 bd
       -0.2738137 -0.18935513 -0.16870667 -0.119077235
000050 ce 88 41 be 60 3a 36 be 6b e1 55 be 11 c9 55 be
       -0.18899843 -0.17795706 -0.20886771 -0.20877482
000060 ec e4 59 be 36 ff 6d be 1a c9 00 be 1f 05 98 bd
       -0.21278733 -0.23241886 -0.12576714 -0.07422852
000070 5c a4 47 be b3 c0 61 bd 10 dd 92 bd 5d f7 21 be
       -0.19496292 -0.055115413 -0.071710706 -0.15817018

context_transformer_0/ffn_layer_0/norm/mul;context_transformer_0/ffn_layer_0/norm/add;context_transformer_0/ffn_layer_1/intermediate_dense/einsum/Einsum;context_transformer_0/ffn_layer_1/intermediate_dense/Relu;context_transformer_0/ffn_layer_1/intermediate_dense/add f4 [32, 32]
000000 4f 7a 8b bd 13 9a 19 bd 16 1c 26 be 9b 7e b1 bd
       -0.06810438 -0.037500452 -0.16221651 -0.08666726
000010 1e 2d a5 bd 19 01 06 bd 9b 8c 91 bd f3 5a 48 3d
       -0.08065246 -0.03271589 -0.071068965 0.04891486
000020 2f 23 70 3e 21 38 80 be a2 5a 1d bd 7f 18 41 3e
       0.23450921 -0.25042823 -0.038416512 0.18857001
000030 6b 82 10 3d 47 48 7c 3e f0 aa c4 be 36 98 15 be
       0.035280626 0.24636947 -0.38411665 -0.14608845
000040 22 29 81 bd fb c6 34 3e f4 1e f5 3c d4 92 bf 3e
       -0.063066736 0.1765403 0.029921986 0.37416708
000050 46 52 3b 3d 3c d4 b8 bd aa b1 22 3d 3c c1 00 bd
       0.04573276 -0.090248555 0.039720215 -0.031434283
000060 cc 57 b4 3d 91 38 1b be dd 46 4c be cc 15 04 be
       0.088058084 -0.15158297 -0.19948907 -0.1289894
000070 7f 71 e3 bc 55 a1 1e be 7d 80 5b 3d 9a d5 84 bc
       -0.02776408 -0.15491231 0.053589333 -0.016215134
000080 b6 58 91 3e 4a d2 a9 3e ba d1 2b be ef b2 39 be
       0.28387994 0.3316825 -0.16779223 -0.18134664
000090 b3 bc 93 bd 0e 93 72 3e b9 e4 b6 3d 3e 63 55 3e
       -0.07213726 0.2368891 0.08930344 0.20838639
0000a0 03 9d 74 be 71 49 86 3e 2a e0 30 3c 65 ff a8 bb
       -0.2388802 0.26227906 0.010795632 -0.0051573985
0000b0 b6 59 db 3b 16 fb a9 3e 50 0e 1c 3e 3a ab 44 3e
       0.006694044 0.33199376 0.15239835 0.19205943
0000c0 24 b7 ba bd c8 50 5c 3e 62 ce f4 3d 1c 17 8e bd
       -0.091169626 0.2151519 0.11953427 -0.069380015
0000d0 d2 4e ba bc 77 21 12 3d ee 2b e5 3e 38 8a 38 bd
       -0.022742663 0.035676446 0.44760078 -0.04505369
0000e0 3d 92 62 3d 66 db 3a be 21 c1 40 be a7 91 50 be
       0.055315245 -0.18247756 -0.18823673 -0.20368062
0000f0 ab 74 0a 3e 7f e3 03 bd 1c ef e7 bd 7f a4 4a 3e
       0.13521068 -0.03219938 -0.11324903 0.19789313
000100 6c 40 ad bb 7a da 4d 3e 5a f2 6f 3e 49 11 d6 bd
       -0.0052872207 0.20102873 0.23432294 -0.10452516
000110 d4 30 c2 3c dc 57 13 be a6 bb 2c be 84 40 0a bd
       0.023704924 -0.14388984 -0.16868457 -0.033752933
000120 13 f4 aa be 57 7d e6 be 5e 89 0d be 57 7d 96 be
       -0.3338934 -0.45017502 -0.13821933 -0.29392502
000130 2e c2 4b bd ca 90 65 be e0 d2 83 be 31 57 b9 3d
       -0.04974573 -0.22418514 -0.25746822 0.090498336
000140 a0 a1 84 3e da ce 4b 3e 9f ca c4 3c 00 95 28 3e
       0.2590456 0.19903126 0.024022399 0.16463089
000150 f3 47 97 3e 22 7e c0 bd 7a e4 02 be df 51 4e be
       0.2954708 -0.09399058 -0.1278247 -0.20148419
000160 c6 8d 6e bc 52 d4 a7 bd 80 ac e6 bd f2 ea ea 3c
       -0.014560169 -0.08194794 -0.112633705 0.028676484
000170 c0 86 ca 3d a7 f8 63 3d 34 d9 6a be 38 ae 0a 3d
       0.09888983 0.055657055 -0.22934419 0.033857554
000180 24 ca e0 ba 1f 73 8b 3c d7 a4 ca be 68 22 03 3c
       -0.0017150086 0.017022667 -0.39578888 0.008003809
000190 f9 f0 7f 3e 51 f2 f0 be a7 ea cf bd f5 79 e0 bd
       0.24994268 -0.47059873 -0.10152178 -0.109607615
0001a0 77 43 59 be f9 65 7e 3e fc 06 da bd 95 c3 83 3c
       -0.21217142 0.24843587 -0.106458634 0.016084472
0001b0 4e 5f 2d 3e e0 d1 a1 3d 1d a8 6a 3e 34 dc db 3e
       0.16930887 0.079013586 0.22915693 0.4294144
0001c0 bb 66 82 be 9a 86 a8 bb e2 b0 31 be b9 73 5e be
       -0.25469002 -0.005142999 -0.17352632 -0.21723832
0001d0 80 00 37 be b5 be 16 3e b5 34 89 3d 44 30 c5 3e
       -0.17871284 0.14721186 0.06699506 0.38513386
0001e0 16 34 c8 bc ce e2 58 be a6 8b 88 3e 4d 2f 90 3b
       -0.024438899 -0.21180269 0.26669043 0.00440017
0001f0 6e 9f d6 bc 58 9e 24 be ec c7 2b be 1e c6 9d bd
       -0.026199069 -0.16076028 -0.16775483 -0.077038035
000200 98 f9 dc 3e c8 8e dd 3c d2 71 01 be 5a 38 90 be
       0.43159175 0.027045622 -0.12641075 -0.28167993
000210 5e cd 48 be f2 1e 22 bd d6 ec 04 3e a6 6c b6 3d
       -0.19609591 -0.039580293 0.1298097 0.08907442
000220 90 f6 2a be 19 fa a0 3b ff eb b5 be 84 3f a3 3e
       -0.16695619 0.0049126265 -0.35531613 0.31884396
000230 bf 22 4e bd db 7d e7 bd f1 0f 12 be ab fd f3 3d
       -0.050326105 -0.11303302 -0.14263894 0.11913618
000240 8c 54 e1 39 0f 36 21 3d 18 f6 28 3e f0 82 12 3d
       0.00042978337 0.039358195 0.16500127 0.035769403
000250 a4 8f 61 be f6 f8 81 3e cc 22 9a 3e dc 0a 8c bc
       -0.22027451 0.25385255 0.30104673 -0.017095022
000260 7d ca 71 3d 00 60 29 be bf d8 82 be ab 30 00 3e
       0.059031 -0.16540527 -0.2555599 0.12518565
000270 1e 35 5f 3e 5d 7e 8e 3e a3 8b e3 bc 87 51 d1 3e
       0.21797606 0.27830783 -0.027776545 0.40882513
000280 e7 16 6d 3d 5a 5f 9b 3d c0 8d 0d bc f9 15 b3 bc
       0.05788317 0.07586546 -0.008639753 -0.021861063
000290 3b ff 5f bc 71 75 4f 3b 73 c0 20 bb f2 ac ce bb
       -0.0136716915 0.0031655694 -0.0024528771 -0.006307238
0002a0 3d 95 fd 3b 8c 3d c2 3c b1 91 93 bc 81 dc b1 3c
       0.007738738 0.023710988 -0.018013807 0.02171159
0002b0 cf 66 38 bd af 5e f5 3c d0 72 0c bd f9 73 81 3c
       -0.04501992 0.029952375 -0.03428918 0.01580237
0002c0 12 ef 11 39 39 27 62 3d 77 63 16 3d cf 8f fd 3c
       0.00013917338 0.055213187 0.03671595 0.030952362
0002d0 a4 ed 13 bd 40 26 7e bc a5 8b f3 bc d5 6b c7 3c
       -0.036115304 -0.015512049 -0.029729674 0.02434341
0002e0 9a 0d 77 3c 3c 2e 11 3c f4 35 28 bd b3 de 53 bc
       0.015078926 0.008861121 -0.04106708 -0.012931514
0002f0 25 ae 1c bc 2c e9 02 bb ef 73 4e 3d bb c0 1c 3c
       -0.009563004 -0.0019975407 0.05040353 0.009567435
000300 a4 a2 02 3e 08 82 3f 3f 64 e5 23 3e 47 3a 86 be
       0.12757355 0.74807787 0.16005474 -0.26216337
000310 80 de ac bd fa 89 da be a3 96 ef bd fb 7a 47 bc
       -0.08440876 -0.42683393 -0.116986535 -0.012175317
000320 aa 31 98 bc 6b e7 06 3d 4e 9f ce 3d 05 6e 37 be
       -0.01857837 0.03293554 0.10088979 -0.17913063
000330 f8 7a af b9 83 35 17 3d 8f b1 bf 3d c3 c5 a1 bd
       -0.0003347022 0.036916267 0.093600385 -0.07899048
000340 99 fb 68 be 09 82 bc 3c bf 33 00 3d be 06 85 be
       -0.22752227 0.023011224 0.03129935 -0.25981706
000350 b8 42 95 3d 9d 16 76 bd 41 28 a5 3e 90 9f c8 3e
       0.07288116 -0.06008016 0.32257274 0.39184237
000360 40 c1 b1 bd 1a 9c 9f be 7c ae c1 be 69 ff e0 bd
       -0.08679438 -0.31173784 -0.37828434 -0.109862156
000370 4c 19 02 3e 08 54 c9 be a9 c2 3c bd 67 93 8c 3e
       0.12704962 -0.39321923 -0.04608408 0.2745621
000380 be da 01 3e 2e 5e a4 3e 04 e4 03 bd 73 e1 c7 be
       0.126811 0.32103103 -0.032199875 -0.39039192
000390 23 50 16 3e 40 c1 5b 3e 7d ac 58 3e 51 6d 7a 3d
       0.14679007 0.21460438 0.21159549 0.06113941
0003a0 59 a1 85 be 23 94 0f 3e d9 ac 01 3e 03 18 4f 3d
       -0.2609966 0.14021353 0.12663592 0.05056001
0003b0 fb 47 07 3e dc a9 8e 3e 42 b7 4d 3e 3a 95 be bd
       0.13211052 0.27863967 0.20089439 -0.093058065
0003c0 76 d6 5e 3d cd e4 6e 3d 7d ab 2f be cb e6 fa 3d
       0.054403745 0.05832367 -0.17155261 0.122510515
0003d0 eb 9b f5 bc 24 f9 83 bd 33 e6 8c 3d a4 9c 05 3e
       -0.029981574 -0.06444004 0.068798445 0.13048035
0003e0 ab 2a 8d be eb 76 0d 3d 4b e0 82 bd b0 e2 91 bc
       -0.27571616 0.034537237 -0.06390437 -0.017808288
0003f0 e4 d7 07 3e 9c a0 10 3e 5b 0e 55 be db 19 67 3f
       0.1326595 0.14123768 -0.20806257 0.9027383

context_transformer_0/ffn_layer_2/intermediate_dense/einsum/Einsum;context_transformer_0/ffn_layer_2/intermediate_dense/Relu;context_transformer_0/ffn_layer_2/intermediate_dense/add f4 [32]
000000 e8 bf 26 be 0b 10 cc 3c fd 4a 25 3e 57 03 6c 3e
       -0.16284144 0.024909994 0.16141887 0.23048149
000010 42 c6 f1 be a8 1a 2e 3d 32 bb 8d bd f1 1c ae be
       -0.4722157 0.04250589 -0.0692047 -0.34006456
000020 60 6f a0 be 57 70 70 be f1 cd 67 be 75 d6 34 be
       -0.31334972 -0.23480354 -0.22637154 -0.17659934
000030 80 0a b2 bd 76 51 ad bd 45 f9 dd 3d 9c f3 99 3d
       -0.08693409 -0.08462803 0.1083856 0.07517168
000040 13 60 88 be 2f dd f7 3d e9 88 b1 bd 72 cf 06 be
       -0.266358 0.12102734 -0.08668692 -0.13165072
000050 48 1d 24 be ef a0 a1 be 2f 00 29 3e 58 0e 57 3d
       -0.16026795 -0.31568095 0.16503976 0.052503914
000060 50 ae 44 3e db 49 d3 3d 57 0c 1a be 7a df 20 bd
       0.1920712 0.10316821 -0.1504377 -0.039275624
000070 0a e5 f1 be af 71 84 be ce 64 9f be 22 c0 5a 3e
       -0.47245055 -0.25867984 -0.31131595 0.21362355
